…
I1127 18:47:56.029044  3435 net.cpp:323] The NetState phase (0) differed from the phase (1) specified by a rule in layer mAP
I1127 18:47:56.029950  3435 net.cpp:52] Initializing net from parameters:
state {
phase: TRAIN
}
layer {
name: "train_data"
type: "Data"
top: "data"
include {
phase: TRAIN
}
data_param {
source: "/home/krishneel/digits/digits/jobs/20161127-153146-188c/train_db/features"
batch_size: 2
backend: LMDB
}
}
layer {
name: "train_label"
type: "Data"
top: "label"
include {
phase: TRAIN
}
data_param {
source: "/home/krishneel/digits/digits/jobs/20161127-153146-188c/train_db/labels"
batch_size: 2
backend: LMDB
}
}
layer {
name: "train_transform"
type: "DetectNetTransformation"
bottom: "data"
bottom: "label"
top: "transformed_data"
top: "transformed_label"
include {
phase: TRAIN
}
transform_param {
mean_value: 127
}
detectnet_groundtruth_param {
stride: 16
scale_cvg: 0.4
gridbox_type: GRIDBOX_MIN
min_cvg_len: 20
coverage_type: RECTANGULAR
image_size_x: 610
image_size_y: 610
obj_norm: true
crop_bboxes: true
object_class {
src: 1
dst: 0
}
}
detectnet_augmentation_param {
crop_prob: 1
shift_x: 32
shift_y: 32
scale_prob: 0.4
scale_min: 0.8
scale_max: 1.2
flip_prob: 0.5
rotation_prob: 0
max_rotate_degree: 5
hue_rotation_prob: 0.8
hue_rotation: 30
desaturation_prob: 0.8
desaturation_max: 0.8
}
}
layer {
name: "slice-label"
type: "Slice"
bottom: "transformed_label"
top: "foreground-label"
top: "bbox-label"
top: "size-label"
top: "obj-label"
top: "coverage-label"
slice_param {
slice_dim: 1
slice_point: 1
slice_point: 5
slice_point: 7
slice_point: 8
}
}
layer {
name: "coverage-block"
type: "Concat"
bottom: "foreground-label"
bottom: "foreground-label"
bottom: "foreground-label"
bottom: "foreground-label"
top: "coverage-block"
concat_param {
concat_dim: 1
}
}
layer {
name: "size-block"
type: "Concat"
bottom: "size-label"
bottom: "size-label"
top: "size-block"
concat_param {
concat_dim: 1
}
}
layer {
name: "obj-block"
type: "Concat"
bottom: "obj-label"
bottom: "obj-label"
bottom: "obj-label"
bottom: "obj-label"
top: "obj-block"
concat_param {
concat_dim: 1
}
}
layer {
name: "bb-label-norm"
type: "Eltwise"
bottom: "bbox-label"
bottom: "size-block"
top: "bbox-label-norm"
eltwise_param {
operation: PROD
}
}
layer {
name: "bb-obj-norm"
type: "Eltwise"
bottom: "bbox-label-norm"
bottom: "obj-block"
top: "bbox-obj-label-norm"
eltwise_param {
operation: PROD
}
}
layer {
name: "conv1/7x7_s2"
type: "Convolution"
bottom: "transformed_data"
top: "conv1/7x7_s2"
param {
lr_mult: 1
decay_mult: 1
}
param {
lr_mult: 2
decay_mult: 0
}
convolution_param {
num_output: 64
pad: 3
kernel_size: 7
stride: 2
weight_filler {
type: "xavier"
std: 0.1
}
bias_filler {
type: "constant"
value: 0.2
}
}
}
layer {
name: "conv1/relu_7x7"
type: "ReLU"
bottom: "conv1/7x7_s2"
top: "conv1/7x7_s2"
}
layer {
name: "pool1/3x3_s2"
type: "Pooling"
bottom: "conv1/7x7_s2"
top: "pool1/3x3_s2"
pooling_param {
pool: MAX
kernel_size: 3
stride: 2
}
}
layer {
name: "pool1/norm1"
type: "LRN"
bottom: "pool1/3x3_s2"
top: "pool1/norm1"
lrn_param {
local_size: 5
alpha: 0.0001
beta: 0.75
}
}
layer {
name: "conv2/3x3_reduce"
type: "Convolution"
bottom: "pool1/norm1"
top: "conv2/3x3_reduce"
param {
lr_mult: 1
decay_mult: 1
}
param {
lr_mult: 2
decay_mult: 0
}
convolution_param {
num_output: 64
kernel_size: 1
weight_filler {
type: "xavier"
std: 0.1
}
bias_filler {
type: "constant"
value: 0.2
}
}
}
layer {
name: "conv2/relu_3x3_reduce"
type: "ReLU"
bottom: "conv2/3x3_reduce"
top: "conv2/3x3_reduce"
}
layer {
name: "conv2/3x3"
type: "Convolution"
bottom: "conv2/3x3_reduce"
top: "conv2/3x3"
param {
lr_mult: 1
decay_mult: 1
}
param {
lr_mult: 2
decay_mult: 0
}
convolution_param {
num_output: 192
pad: 1
kernel_size: 3
weight_filler {
type: "xavier"
std: 0.03
}
bias_filler {
type: "constant"
value: 0.2
}
}
}
layer {
name: "conv2/relu_3x3"
type: "ReLU"
bottom: "conv2/3x3"
top: "conv2/3x3"
}
layer {
name: "conv2/norm2"
type: "LRN"
bottom: "conv2/3x3"
top: "conv2/norm2"
lrn_param {
local_size: 5
alpha: 0.0001
beta: 0.75
}
}
layer {
name: "pool2/3x3_s2"
type: "Pooling"
bottom: "conv2/norm2"
top: "pool2/3x3_s2"
pooling_param {
pool: MAX
kernel_size: 3
stride: 2
}
}
layer {
name: "inception_3a/1x1"
type: "Convolution"
bottom: "pool2/3x3_s2"
top: "inception_3a/1x1"
param {
lr_mult: 1
decay_mult: 1
}
param {
lr_mult: 2
decay_mult: 0
}
convolution_param {
num_output: 64
kernel_size: 1
weight_filler {
type: "xavier"
std: 0.03
}
bias_filler {
type: "constant"
value: 0.2
}
}
}
layer {
name: "inception_3a/relu_1x1"
type: "ReLU"
bottom: "inception_3a/1x1"
top: "inception_3a/1x1"
}
layer {
name: "inception_3a/3x3_reduce"
type: "Convolution"
bottom: "pool2/3x3_s2"
top: "inception_3a/3x3_reduce"
param {
lr_mult: 1
decay_mult: 1
}
param {
lr_mult: 2
decay_mult: 0
}
convolution_param {
num_output: 96
kernel_size: 1
weight_filler {
type: "xavier"
std: 0.09
}
bias_filler {
type: "constant"
value: 0.2
}
}
}
layer {
name: "inception_3a/relu_3x3_reduce"
type: "ReLU"
bottom: "inception_3a/3x3_reduce"
top: "inception_3a/3x3_reduce"
}
layer {
name: "inception_3a/3x3"
type: "Convolution"
bottom: "inception_3a/3x3_reduce"
top: "inception_3a/3x3"
param {
lr_mult: 1
decay_mult: 1
}
param {
lr_mult: 2
decay_mult: 0
}
convolution_param {
num_output: 128
pad: 1
kernel_size: 3
weight_filler {
type: "xavier"
std: 0.03
}
bias_filler {
type: "constant"
value: 0.2
}
}
}
layer {
name: "inception_3a/relu_3x3"
type: "ReLU"
bottom: "inception_3a/3x3"
top: "inception_3a/3x3"
}
layer {
name: "inception_3a/5x5_reduce"
type: "Convolution"
bottom: "pool2/3x3_s2"
top: "inception_3a/5x5_reduce"
param {
lr_mult: 1
decay_mult: 1
}
param {
lr_mult: 2
decay_mult: 0
}
convolution_param {
num_output: 16
kernel_size: 1
weight_filler {
type: "xavier"
std: 0.2
}
bias_filler {
type: "constant"
value: 0.2
}
}
}
layer {
name: "inception_3a/relu_5x5_reduce"
type: "ReLU"
bottom: "inception_3a/5x5_reduce"
top: "inception_3a/5x5_reduce"
}
layer {
name: "inception_3a/5x5"
type: "Convolution"
bottom: "inception_3a/5x5_reduce"
top: "inception_3a/5x5"
param {
lr_mult: 1
decay_mult: 1
}
param {
lr_mult: 2
decay_mult: 0
}
convolution_param {
num_output: 32
pad: 2
kernel_size: 5
weight_filler {
type: "xavier"
std: 0.03
}
bias_filler {
type: "constant"
value: 0.2
}
}
}
layer {
name: "inception_3a/relu_5x5"
type: "ReLU"
bottom: "inception_3a/5x5"
top: "inception_3a/5x5"
}
layer {
name: "inception_3a/pool"
type: "Pooling"
bottom: "pool2/3x3_s2"
top: "inception_3a/pool"
pooling_param {
pool: MAX
kernel_size: 3
stride: 1
pad: 1
}
}
layer {
name: "inception_3a/pool_proj"
type: "Convolution"
bottom: "inception_3a/pool"
top: "inception_3a/pool_proj"
param {
lr_mult: 1
decay_mult: 1
}
param {
lr_mult: 2
decay_mult: 0
}
convolution_param {
num_output: 32
kernel_size: 1
weight_filler {
type: "xavier"
std: 0.1
}
bias_filler {
type: "constant"
value: 0.2
}
}
}
layer {
name: "inception_3a/relu_pool_proj"
type: "ReLU"
bottom: "inception_3a/pool_proj"
top: "inception_3a/pool_proj"
}
layer {
name: "inception_3a/output"
type: "Concat"
bottom: "inception_3a/1x1"
bottom: "inception_3a/3x3"
bottom: "inception_3a/5x5"
bottom: "inception_3a/pool_proj"
top: "inception_3a/output"
}
layer {
name: "inception_3b/1x1"
type: "Convolution"
bottom: "inception_3a/output"
top: "inception_3b/1x1"
param {
lr_mult: 1
decay_mult: 1
}
param {
lr_mult: 2
decay_mult: 0
}
convolution_param {
num_output: 128
kernel_size: 1
weight_filler {
type: "xavier"
std: 0.03
}
bias_filler {
type: "constant"
value: 0.2
}
}
}
layer {
name: "inception_3b/relu_1x1"
type: "ReLU"
bottom: "inception_3b/1x1"
top: "inception_3b/1x1"
}
layer {
name: "inception_3b/3x3_reduce"
type: "Convolution"
bottom: "inception_3a/output"
top: "inception_3b/3x3_reduce"
param {
lr_mult: 1
decay_mult: 1
}
param {
lr_mult: 2
decay_mult: 0
}
convolution_param {
num_output: 128
kernel_size: 1
weight_filler {
type: "xavier"
std: 0.09
}
bias_filler {
type: "constant"
value: 0.2
}
}
}
layer {
name: "inception_3b/relu_3x3_reduce"
type: "ReLU"
bottom: "inception_3b/3x3_reduce"
top: "inception_3b/3x3_reduce"
}
layer {
name: "inception_3b/3x3"
type: "Convolution"
bottom: "inception_3b/3x3_reduce"
top: "inception_3b/3x3"
param {
lr_mult: 1
decay_mult: 1
}
param {
lr_mult: 2
decay_mult: 0
}
convolution_param {
num_output: 192
pad: 1
kernel_size: 3
weight_filler {
type: "xavier"
std: 0.03
}
bias_filler {
type: "constant"
value: 0.2
}
}
}
layer {
name: "inception_3b/relu_3x3"
type: "ReLU"
bottom: "inception_3b/3x3"
top: "inception_3b/3x3"
}
layer {
name: "inception_3b/5x5_reduce"
type: "Convolution"
bottom: "inception_3a/output"
top: "inception_3b/5x5_reduce"
param {
lr_mult: 1
decay_mult: 1
}
param {
lr_mult: 2
decay_mult: 0
}
convolution_param {
num_output: 32
kernel_size: 1
weight_filler {
type: "xavier"
std: 0.2
}
bias_filler {
type: "constant"
value: 0.2
}
}
}
layer {
name: "inception_3b/relu_5x5_reduce"
type: "ReLU"
bottom: "inception_3b/5x5_reduce"
top: "inception_3b/5x5_reduce"
}
layer {
name: "inception_3b/5x5"
type: "Convolution"
bottom: "inception_3b/5x5_reduce"
top: "inception_3b/5x5"
param {
lr_mult: 1
decay_mult: 1
}
param {
lr_mult: 2
decay_mult: 0
}
convolution_param {
num_output: 96
pad: 2
kernel_size: 5
weight_filler {
type: "xavier"
std: 0.03
}
bias_filler {
type: "constant"
value: 0.2
}
}
}
layer {
name: "inception_3b/relu_5x5"
type: "ReLU"
bottom: "inception_3b/5x5"
top: "inception_3b/5x5"
}
layer {
name: "inception_3b/pool"
type: "Pooling"
bottom: "inception_3a/output"
top: "inception_3b/pool"
pooling_param {
pool: MAX
kernel_size: 3
stride: 1
pad: 1
}
}
layer {
name: "inception_3b/pool_proj"
type: "Convolution"
bottom: "inception_3b/pool"
top: "inception_3b/pool_proj"
param {
lr_mult: 1
decay_mult: 1
}
param {
lr_mult: 2
decay_mult: 0
}
convolution_param {
num_output: 64
kernel_size: 1
weight_filler {
type: "xavier"
std: 0.1
}
bias_filler {
type: "constant"
value: 0.2
}
}
}
layer {
name: "inception_3b/relu_pool_proj"
type: "ReLU"
bottom: "inception_3b/pool_proj"
top: "inception_3b/pool_proj"
}
layer {
name: "inception_3b/output"
type: "Concat"
bottom: "inception_3b/1x1"
bottom: "inception_3b/3x3"
bottom: "inception_3b/5x5"
bottom: "inception_3b/pool_proj"
top: "inception_3b/output"
}
layer {
name: "pool3/3x3_s2"
type: "Pooling"
bottom: "inception_3b/output"
top: "pool3/3x3_s2"
pooling_param {
pool: MAX
kernel_size: 3
stride: 2
}
}
layer {
name: "inception_4a/1x1"
type: "Convolution"
bottom: "pool3/3x3_s2"
top: "inception_4a/1x1"
param {
lr_mult: 1
decay_mult: 1
}
param {
lr_mult: 2
decay_mult: 0
}
convolution_param {
num_output: 192
kernel_size: 1
weight_filler {
type: "xavier"
std: 0.03
}
bias_filler {
type: "constant"
value: 0.2
}
}
}
layer {
name: "inception_4a/relu_1x1"
type: "ReLU"
bottom: "inception_4a/1x1"
top: "inception_4a/1x1"
}
layer {
name: "inception_4a/3x3_reduce"
type: "Convolution"
bottom: "pool3/3x3_s2"
top: "inception_4a/3x3_reduce"
param {
lr_mult: 1
decay_mult: 1
}
param {
lr_mult: 2
decay_mult: 0
}
convolution_param {
num_output: 96
kernel_size: 1
weight_filler {
type: "xavier"
std: 0.09
}
bias_filler {
type: "constant"
value: 0.2
}
}
}
layer {
name: "inception_4a/relu_3x3_reduce"
type: "ReLU"
bottom: "inception_4a/3x3_reduce"
top: "inception_4a/3x3_reduce"
}
layer {
name: "inception_4a/3x3"
type: "Convolution"
bottom: "inception_4a/3x3_reduce"
top: "inception_4a/3x3"
param {
lr_mult: 1
decay_mult: 1
}
param {
lr_mult: 2
decay_mult: 0
}
convolution_param {
num_output: 208
pad: 1
kernel_size: 3
weight_filler {
type: "xavier"
std: 0.03
}
bias_filler {
type: "constant"
value: 0.2
}
}
}
layer {
name: "inception_4a/relu_3x3"
type: "ReLU"
bottom: "inception_4a/3x3"
top: "inception_4a/3x3"
}
layer {
name: "inception_4a/5x5_reduce"
type: "Convolution"
bottom: "pool3/3x3_s2"
top: "inception_4a/5x5_reduce"
param {
lr_mult: 1
decay_mult: 1
}
param {
lr_mult: 2
decay_mult: 0
}
convolution_param {
num_output: 16
kernel_size: 1
weight_filler {
type: "xavier"
std: 0.2
}
bias_filler {
type: "constant"
value: 0.2
}
}
}
layer {
name: "inception_4a/relu_5x5_reduce"
type: "ReLU"
bottom: "inception_4a/5x5_reduce"
top: "inception_4a/5x5_reduce"
}
layer {
name: "inception_4a/5x5"
type: "Convolution"
bottom: "inception_4a/5x5_reduce"
top: "inception_4a/5x5"
param {
lr_mult: 1
decay_mult: 1
}
param {
lr_mult: 2
decay_mult: 0
}
convolution_param {
num_output: 48
pad: 2
kernel_size: 5
weight_filler {
type: "xavier"
std: 0.03
}
bias_filler {
type: "constant"
value: 0.2
}
}
}
layer {
name: "inception_4a/relu_5x5"
type: "ReLU"
bottom: "inception_4a/5x5"
top: "inception_4a/5x5"
}
layer {
name: "inception_4a/pool"
type: "Pooling"
bottom: "pool3/3x3_s2"
top: "inception_4a/pool"
pooling_param {
pool: MAX
kernel_size: 3
stride: 1
pad: 1
}
}
layer {
name: "inception_4a/pool_proj"
type: "Convolution"
bottom: "inception_4a/pool"
top: "inception_4a/pool_proj"
param {
lr_mult: 1
decay_mult: 1
}
param {
lr_mult: 2
decay_mult: 0
}
convolution_param {
num_output: 64
kernel_size: 1
weight_filler {
type: "xavier"
std: 0.1
}
bias_filler {
type: "constant"
value: 0.2
}
}
}
layer {
name: "inception_4a/relu_pool_proj"
type: "ReLU"
bottom: "inception_4a/pool_proj"
top: "inception_4a/pool_proj"
}
layer {
name: "inception_4a/output"
type: "Concat"
bottom: "inception_4a/1x1"
bottom: "inception_4a/3x3"
bottom: "inception_4a/5x5"
bottom: "inception_4a/pool_proj"
top: "inception_4a/output"
}
layer {
name: "inception_4b/1x1"
type: "Convolution"
bottom: "inception_4a/output"
top: "inception_4b/1x1"
param {
lr_mult: 1
decay_mult: 1
}
param {
lr_mult: 2
decay_mult: 0
}
convolution_param {
num_output: 160
kernel_size: 1
weight_filler {
type: "xavier"
std: 0.03
}
bias_filler {
type: "constant"
value: 0.2
}
}
}
layer {
name: "inception_4b/relu_1x1"
type: "ReLU"
bottom: "inception_4b/1x1"
top: "inception_4b/1x1"
}
layer {
name: "inception_4b/3x3_reduce"
type: "Convolution"
bottom: "inception_4a/output"
top: "inception_4b/3x3_reduce"
param {
lr_mult: 1
decay_mult: 1
}
param {
lr_mult: 2
decay_mult: 0
}
convolution_param {
num_output: 112
kernel_size: 1
weight_filler {
type: "xavier"
std: 0.09
}
bias_filler {
type: "constant"
value: 0.2
}
}
}
layer {
name: "inception_4b/relu_3x3_reduce"
type: "ReLU"
bottom: "inception_4b/3x3_reduce"
top: "inception_4b/3x3_reduce"
}
layer {
name: "inception_4b/3x3"
type: "Convolution"
bottom: "inception_4b/3x3_reduce"
top: "inception_4b/3x3"
param {
lr_mult: 1
decay_mult: 1
}
param {
lr_mult: 2
decay_mult: 0
}
convolution_param {
num_output: 224
pad: 1
kernel_size: 3
weight_filler {
type: "xavier"
std: 0.03
}
bias_filler {
type: "constant"
value: 0.2
}
}
}
layer {
name: "inception_4b/relu_3x3"
type: "ReLU"
bottom: "inception_4b/3x3"
top: "inception_4b/3x3"
}
layer {
name: "inception_4b/5x5_reduce"
type: "Convolution"
bottom: "inception_4a/output"
top: "inception_4b/5x5_reduce"
param {
lr_mult: 1
decay_mult: 1
}
param {
lr_mult: 2
decay_mult: 0
}
convolution_param {
num_output: 24
kernel_size: 1
weight_filler {
type: "xavier"
std: 0.2
}
bias_filler {
type: "constant"
value: 0.2
}
}
}
layer {
name: "inception_4b/relu_5x5_reduce"
type: "ReLU"
bottom: "inception_4b/5x5_reduce"
top: "inception_4b/5x5_reduce"
}
layer {
name: "inception_4b/5x5"
type: "Convolution"
bottom: "inception_4b/5x5_reduce"
top: "inception_4b/5x5"
param {
lr_mult: 1
decay_mult: 1
}
param {
lr_mult: 2
decay_mult: 0
}
convolution_param {
num_output: 64
pad: 2
kernel_size: 5
weight_filler {
type: "xavier"
std: 0.03
}
bias_filler {
type: "constant"
value: 0.2
}
}
}
layer {
name: "inception_4b/relu_5x5"
type: "ReLU"
bottom: "inception_4b/5x5"
top: "inception_4b/5x5"
}
layer {
name: "inception_4b/pool"
type: "Pooling"
bottom: "inception_4a/output"
top: "inception_4b/pool"
pooling_param {
pool: MAX
kernel_size: 3
stride: 1
pad: 1
}
}
layer {
name: "inception_4b/pool_proj"
type: "Convolution"
bottom: "inception_4b/pool"
top: "inception_4b/pool_proj"
param {
lr_mult: 1
decay_mult: 1
}
param {
lr_mult: 2
decay_mult: 0
}
convolution_param {
num_output: 64
kernel_size: 1
weight_filler {
type: "xavier"
std: 0.1
}
bias_filler {
type: "constant"
value: 0.2
}
}
}
layer {
name: "inception_4b/relu_pool_proj"
type: "ReLU"
bottom: "inception_4b/pool_proj"
top: "inception_4b/pool_proj"
}
layer {
name: "inception_4b/output"
type: "Concat"
bottom: "inception_4b/1x1"
bottom: "inception_4b/3x3"
bottom: "inception_4b/5x5"
bottom: "inception_4b/pool_proj"
top: "inception_4b/output"
}
layer {
name: "inception_4c/1x1"
type: "Convolution"
bottom: "inception_4b/output"
top: "inception_4c/1x1"
param {
lr_mult: 1
decay_mult: 1
}
param {
lr_mult: 2
decay_mult: 0
}
convolution_param {
num_output: 128
kernel_size: 1
weight_filler {
type: "xavier"
std: 0.03
}
bias_filler {
type: "constant"
value: 0.2
}
}
}
layer {
name: "inception_4c/relu_1x1"
type: "ReLU"
bottom: "inception_4c/1x1"
top: "inception_4c/1x1"
}
layer {
name: "inception_4c/3x3_reduce"
type: "Convolution"
bottom: "inception_4b/output"
top: "inception_4c/3x3_reduce"
param {
lr_mult: 1
decay_mult: 1
}
param {
lr_mult: 2
decay_mult: 0
}
convolution_param {
num_output: 128
kernel_size: 1
weight_filler {
type: "xavier"
std: 0.09
}
bias_filler {
type: "constant"
value: 0.2
}
}
}
layer {
name: "inception_4c/relu_3x3_reduce"
type: "ReLU"
bottom: "inception_4c/3x3_reduce"
top: "inception_4c/3x3_reduce"
}
layer {
name: "inception_4c/3x3"
type: "Convolution"
bottom: "inception_4c/3x3_reduce"
top: "inception_4c/3x3"
param {
lr_mult: 1
decay_mult: 1
}
param {
lr_mult: 2
decay_mult: 0
}
convolution_param {
num_output: 256
pad: 1
kernel_size: 3
weight_filler {
type: "xavier"
std: 0.03
}
bias_filler {
type: "constant"
value: 0.2
}
}
}
layer {
name: "inception_4c/relu_3x3"
type: "ReLU"
bottom: "inception_4c/3x3"
top: "inception_4c/3x3"
}
layer {
name: "inception_4c/5x5_reduce"
type: "Convolution"
bottom: "inception_4b/output"
top: "inception_4c/5x5_reduce"
param {
lr_mult: 1
decay_mult: 1
}
param {
lr_mult: 2
decay_mult: 0
}
convolution_param {
num_output: 24
kernel_size: 1
weight_filler {
type: "xavier"
std: 0.2
}
bias_filler {
type: "constant"
value: 0.2
}
}
}
layer {
name: "inception_4c/relu_5x5_reduce"
type: "ReLU"
bottom: "inception_4c/5x5_reduce"
top: "inception_4c/5x5_reduce"
}
layer {
name: "inception_4c/5x5"
type: "Convolution"
bottom: "inception_4c/5x5_reduce"
top: "inception_4c/5x5"
param {
lr_mult: 1
decay_mult: 1
}
param {
lr_mult: 2
decay_mult: 0
}
convolution_param {
num_output: 64
pad: 2
kernel_size: 5
weight_filler {
type: "xavier"
std: 0.03
}
bias_filler {
type: "constant"
value: 0.2
}
}
}
layer {
name: "inception_4c/relu_5x5"
type: "ReLU"
bottom: "inception_4c/5x5"
top: "inception_4c/5x5"
}
layer {
name: "inception_4c/pool"
type: "Pooling"
bottom: "inception_4b/output"
top: "inception_4c/pool"
pooling_param {
pool: MAX
kernel_size: 3
stride: 1
pad: 1
}
}
layer {
name: "inception_4c/pool_proj"
type: "Convolution"
bottom: "inception_4c/pool"
top: "inception_4c/pool_proj"
param {
lr_mult: 1
decay_mult: 1
}
param {
lr_mult: 2
decay_mult: 0
}
convolution_param {
num_output: 64
kernel_size: 1
weight_filler {
type: "xavier"
std: 0.1
}
bias_filler {
type: "constant"
value: 0.2
}
}
}
layer {
name: "inception_4c/relu_pool_proj"
type: "ReLU"
bottom: "inception_4c/pool_proj"
top: "inception_4c/pool_proj"
}
layer {
name: "inception_4c/output"
type: "Concat"
bottom: "inception_4c/1x1"
bottom: "inception_4c/3x3"
bottom: "inception_4c/5x5"
bottom: "inception_4c/pool_proj"
top: "inception_4c/output"
}
layer {
name: "inception_4d/1x1"
type: "Convolution"
bottom: "inception_4c/output"
top: "inception_4d/1x1"
param {
lr_mult: 1
decay_mult: 1
}
param {
lr_mult: 2
decay_mult: 0
}
convolution_param {
num_output: 112
kernel_size: 1
weight_filler {
type: "xavier"
std: 0.1
}
bias_filler {
type: "constant"
value: 0.2
}
}
}
layer {
name: "inception_4d/relu_1x1"
type: "ReLU"
bottom: "inception_4d/1x1"
top: "inception_4d/1x1"
}
layer {
name: "inception_4d/3x3_reduce"
type: "Convolution"
bottom: "inception_4c/output"
top: "inception_4d/3x3_reduce"
param {
lr_mult: 1
decay_mult: 1
}
param {
lr_mult: 2
decay_mult: 0
}
convolution_param {
num_output: 144
kernel_size: 1
weight_filler {
type: "xavier"
std: 0.1
}
bias_filler {
type: "constant"
value: 0.2
}
}
}
layer {
name: "inception_4d/relu_3x3_reduce"
type: "ReLU"
bottom: "inception_4d/3x3_reduce"
top: "inception_4d/3x3_reduce"
}
layer {
name: "inception_4d/3x3"
type: "Convolution"
bottom: "inception_4d/3x3_reduce"
top: "inception_4d/3x3"
param {
lr_mult: 1
decay_mult: 1
}
param {
lr_mult: 2
decay_mult: 0
}
convolution_param {
num_output: 288
pad: 1
kernel_size: 3
weight_filler {
type: "xavier"
std: 0.1
}
bias_filler {
type: "constant"
value: 0.2
}
}
}
layer {
name: "inception_4d/relu_3x3"
type: "ReLU"
bottom: "inception_4d/3x3"
top: "inception_4d/3x3"
}
layer {
name: "inception_4d/5x5_reduce"
type: "Convolution"
bottom: "inception_4c/output"
top: "inception_4d/5x5_reduce"
param {
lr_mult: 1
decay_mult: 1
}
param {
lr_mult: 2
decay_mult: 0
}
convolution_param {
num_output: 32
kernel_size: 1
weight_filler {
type: "xavier"
std: 0.1
}
bias_filler {
type: "constant"
value: 0.2
}
}
}
layer {
name: "inception_4d/relu_5x5_reduce"
type: "ReLU"
bottom: "inception_4d/5x5_reduce"
top: "inception_4d/5x5_reduce"
}
layer {
name: "inception_4d/5x5"
type: "Convolution"
bottom: "inception_4d/5x5_reduce"
top: "inception_4d/5x5"
param {
lr_mult: 1
decay_mult: 1
}
param {
lr_mult: 2
decay_mult: 0
}
convolution_param {
num_output: 64
pad: 2
kernel_size: 5
weight_filler {
type: "xavier"
std: 0.1
}
bias_filler {
type: "constant"
value: 0.2
}
}
}
layer {
name: "inception_4d/relu_5x5"
type: "ReLU"
bottom: "inception_4d/5x5"
top: "inception_4d/5x5"
}
layer {
name: "inception_4d/pool"
type: "Pooling"
bottom: "inception_4c/output"
top: "inception_4d/pool"
pooling_param {
pool: MAX
kernel_size: 3
stride: 1
pad: 1
}
}
layer {
name: "inception_4d/pool_proj"
type: "Convolution"
bottom: "inception_4d/pool"
top: "inception_4d/pool_proj"
param {
lr_mult: 1
decay_mult: 1
}
param {
lr_mult: 2
decay_mult: 0
}
convolution_param {
num_output: 64
kernel_size: 1
weight_filler {
type: "xavier"
std: 0.1
}
bias_filler {
type: "constant"
value: 0.2
}
}
}
layer {
name: "inception_4d/relu_pool_proj"
type: "ReLU"
bottom: "inception_4d/pool_proj"
top: "inception_4d/pool_proj"
}
layer {
name: "inception_4d/output"
type: "Concat"
bottom: "inception_4d/1x1"
bottom: "inception_4d/3x3"
bottom: "inception_4d/5x5"
bottom: "inception_4d/pool_proj"
top: "inception_4d/output"
}
layer {
name: "inception_4e/1x1"
type: "Convolution"
bottom: "inception_4d/output"
top: "inception_4e/1x1"
param {
lr_mult: 1
decay_mult: 1
}
param {
lr_mult: 2
decay_mult: 0
}
convolution_param {
num_output: 256
kernel_size: 1
weight_filler {
type: "xavier"
std: 0.03
}
bias_filler {
type: "constant"
value: 0.2
}
}
}
layer {
name: "inception_4e/relu_1x1"
type: "ReLU"
bottom: "inception_4e/1x1"
top: "inception_4e/1x1"
}
layer {
name: "inception_4e/3x3_reduce"
type: "Convolution"
bottom: "inception_4d/output"
top: "inception_4e/3x3_reduce"
param {
lr_mult: 1
decay_mult: 1
}
param {
lr_mult: 2
decay_mult: 0
}
convolution_param {
num_output: 160
kernel_size: 1
weight_filler {
type: "xavier"
std: 0.09
}
bias_filler {
type: "constant"
value: 0.2
}
}
}
layer {
name: "inception_4e/relu_3x3_reduce"
type: "ReLU"
bottom: "inception_4e/3x3_reduce"
top: "inception_4e/3x3_reduce"
}
layer {
name: "inception_4e/3x3"
type: "Convolution"
bottom: "inception_4e/3x3_reduce"
top: "inception_4e/3x3"
param {
lr_mult: 1
decay_mult: 1
}
param {
lr_mult: 2
decay_mult: 0
}
convolution_param {
num_output: 320
pad: 1
kernel_size: 3
weight_filler {
type: "xavier"
std: 0.03
}
bias_filler {
type: "constant"
value: 0.2
}
}
}
layer {
name: "inception_4e/relu_3x3"
type: "ReLU"
bottom: "inception_4e/3x3"
top: "inception_4e/3x3"
}
layer {
name: "inception_4e/5x5_reduce"
type: "Convolution"
bottom: "inception_4d/output"
top: "inception_4e/5x5_reduce"
param {
lr_mult: 1
decay_mult: 1
}
param {
lr_mult: 2
decay_mult: 0
}
convolution_param {
num_output: 32
kernel_size: 1
weight_filler {
type: "xavier"
std: 0.2
}
bias_filler {
type: "constant"
value: 0.2
}
}
}
layer {
name: "inception_4e/relu_5x5_reduce"
type: "ReLU"
bottom: "inception_4e/5x5_reduce"
top: "inception_4e/5x5_reduce"
}
layer {
name: "inception_4e/5x5"
type: "Convolution"
bottom: "inception_4e/5x5_reduce"
top: "inception_4e/5x5"
param {
lr_mult: 1
decay_mult: 1
}
param {
lr_mult: 2
decay_mult: 0
}
convolution_param {
num_output: 128
pad: 2
kernel_size: 5
weight_filler {
type: "xavier"
std: 0.03
}
bias_filler {
type: "constant"
value: 0.2
}
}
}
layer {
name: "inception_4e/relu_5x5"
type: "ReLU"
bottom: "inception_4e/5x5"
top: "inception_4e/5x5"
}
layer {
name: "inception_4e/pool"
type: "Pooling"
bottom: "inception_4d/output"
top: "inception_4e/pool"
pooling_param {
pool: MAX
kernel_size: 3
stride: 1
pad: 1
}
}
layer {
name: "inception_4e/pool_proj"
type: "Convolution"
bottom: "inception_4e/pool"
top: "inception_4e/pool_proj"
param {
lr_mult: 1
decay_mult: 1
}
param {
lr_mult: 2
decay_mult: 0
}
convolution_param {
num_output: 128
kernel_size: 1
weight_filler {
type: "xavier"
std: 0.1
}
bias_filler {
type: "constant"
value: 0.2
}
}
}
layer {
name: "inception_4e/relu_pool_proj"
type: "ReLU"
bottom: "inception_4e/pool_proj"
top: "inception_4e/pool_proj"
}
layer {
I1127 18:47:56.030459  3435 layer_factory.hpp:77] Creating layer train_data
I1127 18:47:56.031538  3435 net.cpp:94] Creating Layer train_data
I1127 18:47:56.031569  3435 net.cpp:409] train_data -> data
I1127 18:47:56.032744  3438 db_lmdb.cpp:35] Opened lmdb /home/krishneel/digits/digits/jobs/20161127-153146-188c/train_db/features
I1127 18:47:56.043637  3435 data_layer.cpp:76] output data size: 2,3,610,610
I1127 18:47:56.053505  3435 net.cpp:144] Setting up train_data
I1127 18:47:56.053544  3435 net.cpp:151] Top shape: 2 3 610 610 (2232600)
I1127 18:47:56.053549  3435 net.cpp:159] Memory required for data: 8930400
I1127 18:47:56.053556  3435 layer_factory.hpp:77] Creating layer train_label
I1127 18:47:56.054575  3435 net.cpp:94] Creating Layer train_label
I1127 18:47:56.054589  3435 net.cpp:409] train_label -> label
I1127 18:47:56.055531  3448 db_lmdb.cpp:35] Opened lmdb /home/krishneel/digits/digits/jobs/20161127-153146-188c/train_db/labels
I1127 18:47:56.055665  3435 data_layer.cpp:76] output data size: 2,1,2,16
I1127 18:47:56.055785  3435 net.cpp:144] Setting up train_label
I1127 18:47:56.055794  3435 net.cpp:151] Top shape: 2 1 2 16 (64)
I1127 18:47:56.055796  3435 net.cpp:159] Memory required for data: 8930656
I1127 18:47:56.055799  3435 layer_factory.hpp:77] Creating layer train_transform
I1127 18:47:56.055852  3435 net.cpp:94] Creating Layer train_transform
I1127 18:47:56.055856  3435 net.cpp:435] train_transform <- data
I1127 18:47:56.055863  3435 net.cpp:435] train_transform <- label
I1127 18:47:56.055868  3435 net.cpp:409] train_transform -> transformed_data
I1127 18:47:56.055879  3435 net.cpp:409] train_transform -> transformed_label
I1127 18:47:56.056152  3435 net.cpp:144] Setting up train_transform
I1127 18:47:56.056179  3435 net.cpp:151] Top shape: 2 3 610 610 (2232600)
I1127 18:47:56.056182  3435 net.cpp:151] Top shape: 2 9 38 38 (25992)
I1127 18:47:56.056185  3435 net.cpp:159] Memory required for data: 17965024
I1127 18:47:56.056205  3435 layer_factory.hpp:77] Creating layer slice-label
I1127 18:47:56.056231  3435 net.cpp:94] Creating Layer slice-label
I1127 18:47:56.056234  3435 net.cpp:435] slice-label <- transformed_label
I1127 18:47:56.056252  3435 net.cpp:409] slice-label -> foreground-label
I1127 18:47:56.056259  3435 net.cpp:409] slice-label -> bbox-label
I1127 18:47:56.056263  3435 net.cpp:409] slice-label -> size-label
I1127 18:47:56.056268  3435 net.cpp:409] slice-label -> obj-label
I1127 18:47:56.056272  3435 net.cpp:409] slice-label -> coverage-label
I1127 18:47:56.056316  3435 net.cpp:144] Setting up slice-label
I1127 18:47:56.056320  3435 net.cpp:151] Top shape: 2 1 38 38 (2888)
I1127 18:47:56.056324  3435 net.cpp:151] Top shape: 2 4 38 38 (11552)
I1127 18:47:56.056326  3435 net.cpp:151] Top shape: 2 2 38 38 (5776)
I1127 18:47:56.056329  3435 net.cpp:151] Top shape: 2 1 38 38 (2888)
I1127 18:47:56.056332  3435 net.cpp:151] Top shape: 2 1 38 38 (2888)
I1127 18:47:56.056334  3435 net.cpp:159] Memory required for data: 18068992
I1127 18:47:56.056337  3435 layer_factory.hpp:77] Creating layer foreground-label_slice-label_0_split
I1127 18:47:56.056344  3435 net.cpp:94] Creating Layer foreground-label_slice-label_0_split
I1127 18:47:56.056347  3435 net.cpp:435] foreground-label_slice-label_0_split <- foreground-label
I1127 18:47:56.056351  3435 net.cpp:409] foreground-label_slice-label_0_split -> foreground-label_slice-label_0_split_0
I1127 18:47:56.056355  3435 net.cpp:409] foreground-label_slice-label_0_split -> foreground-label_slice-label_0_split_1
I1127 18:47:56.056360  3435 net.cpp:409] foreground-label_slice-label_0_split -> foreground-label_slice-label_0_split_2
I1127 18:47:56.056363  3435 net.cpp:409] foreground-label_slice-label_0_split -> foreground-label_slice-label_0_split_3
I1127 18:47:56.056396  3435 net.cpp:144] Setting up foreground-label_slice-label_0_split
I1127 18:47:56.056399  3435 net.cpp:151] Top shape: 2 1 38 38 (2888)
I1127 18:47:56.056402  3435 net.cpp:151] Top shape: 2 1 38 38 (2888)
I1127 18:47:56.056406  3435 net.cpp:151] Top shape: 2 1 38 38 (2888)
I1127 18:47:56.056407  3435 net.cpp:151] Top shape: 2 1 38 38 (2888)
I1127 18:47:56.056411  3435 net.cpp:159] Memory required for data: 18115200
I1127 18:47:56.056413  3435 layer_factory.hpp:77] Creating layer size-label_slice-label_2_split
I1127 18:47:56.056416  3435 net.cpp:94] Creating Layer size-label_slice-label_2_split
I1127 18:47:56.056419  3435 net.cpp:435] size-label_slice-label_2_split <- size-label
I1127 18:47:56.056422  3435 net.cpp:409] size-label_slice-label_2_split -> size-label_slice-label_2_split_0
I1127 18:47:56.056427  3435 net.cpp:409] size-label_slice-label_2_split -> size-label_slice-label_2_split_1
I1127 18:47:56.056444  3435 net.cpp:144] Setting up size-label_slice-label_2_split
I1127 18:47:56.056448  3435 net.cpp:151] Top shape: 2 2 38 38 (5776)
I1127 18:47:56.056452  3435 net.cpp:151] Top shape: 2 2 38 38 (5776)
I1127 18:47:56.056453  3435 net.cpp:159] Memory required for data: 18161408
I1127 18:47:56.056455  3435 layer_factory.hpp:77] Creating layer obj-label_slice-label_3_split
I1127 18:47:56.056466  3435 net.cpp:94] Creating Layer obj-label_slice-label_3_split
I1127 18:47:56.056469  3435 net.cpp:435] obj-label_slice-label_3_split <- obj-label
I1127 18:47:56.056473  3435 net.cpp:409] obj-label_slice-label_3_split -> obj-label_slice-label_3_split_0
I1127 18:47:56.056476  3435 net.cpp:409] obj-label_slice-label_3_split -> obj-label_slice-label_3_split_1
I1127 18:47:56.056483  3435 net.cpp:409] obj-label_slice-label_3_split -> obj-label_slice-label_3_split_2
I1127 18:47:56.056486  3435 net.cpp:409] obj-label_slice-label_3_split -> obj-label_slice-label_3_split_3
I1127 18:47:56.056517  3435 net.cpp:144] Setting up obj-label_slice-label_3_split
I1127 18:47:56.056520  3435 net.cpp:151] Top shape: 2 1 38 38 (2888)
I1127 18:47:56.056524  3435 net.cpp:151] Top shape: 2 1 38 38 (2888)
I1127 18:47:56.056527  3435 net.cpp:151] Top shape: 2 1 38 38 (2888)
I1127 18:47:56.056529  3435 net.cpp:151] Top shape: 2 1 38 38 (2888)
I1127 18:47:56.056532  3435 net.cpp:159] Memory required for data: 18207616
I1127 18:47:56.056535  3435 layer_factory.hpp:77] Creating layer coverage-block
I1127 18:47:56.056541  3435 net.cpp:94] Creating Layer coverage-block
I1127 18:47:56.056545  3435 net.cpp:435] coverage-block <- foreground-label_slice-label_0_split_0
I1127 18:47:56.056547  3435 net.cpp:435] coverage-block <- foreground-label_slice-label_0_split_1
I1127 18:47:56.056550  3435 net.cpp:435] coverage-block <- foreground-label_slice-label_0_split_2
I1127 18:47:56.056553  3435 net.cpp:435] coverage-block <- foreground-label_slice-label_0_split_3
I1127 18:47:56.056556  3435 net.cpp:409] coverage-block -> coverage-block
I1127 18:47:56.056571  3435 net.cpp:144] Setting up coverage-block
I1127 18:47:56.056574  3435 net.cpp:151] Top shape: 2 4 38 38 (11552)
I1127 18:47:56.056577  3435 net.cpp:159] Memory required for data: 18253824
I1127 18:47:56.056579  3435 layer_factory.hpp:77] Creating layer size-block
I1127 18:47:56.056583  3435 net.cpp:94] Creating Layer size-block
I1127 18:47:56.056586  3435 net.cpp:435] size-block <- size-label_slice-label_2_split_0
I1127 18:47:56.056589  3435 net.cpp:435] size-block <- size-label_slice-label_2_split_1
I1127 18:47:56.056592  3435 net.cpp:409] size-block -> size-block
I1127 18:47:56.056605  3435 net.cpp:144] Setting up size-block
I1127 18:47:56.056608  3435 net.cpp:151] Top shape: 2 4 38 38 (11552)
I1127 18:47:56.056612  3435 net.cpp:159] Memory required for data: 18300032
I1127 18:47:56.056613  3435 layer_factory.hpp:77] Creating layer size-block_size-block_0_split
I1127 18:47:56.056617  3435 net.cpp:94] Creating Layer size-block_size-block_0_split
I1127 18:47:56.056619  3435 net.cpp:435] size-block_size-block_0_split <- size-block
I1127 18:47:56.056622  3435 net.cpp:409] size-block_size-block_0_split -> size-block_size-block_0_split_0
I1127 18:47:56.056627  3435 net.cpp:409] size-block_size-block_0_split -> size-block_size-block_0_split_1
I1127 18:47:56.056645  3435 net.cpp:144] Setting up size-block_size-block_0_split
I1127 18:47:56.056648  3435 net.cpp:151] Top shape: 2 4 38 38 (11552)
I1127 18:47:56.056653  3435 net.cpp:151] Top shape: 2 4 38 38 (11552)
I1127 18:47:56.056654  3435 net.cpp:159] Memory required for data: 18392448
I1127 18:47:56.056656  3435 layer_factory.hpp:77] Creating layer obj-block
I1127 18:47:56.056660  3435 net.cpp:94] Creating Layer obj-block
I1127 18:47:56.056663  3435 net.cpp:435] obj-block <- obj-label_slice-label_3_split_0
I1127 18:47:56.056666  3435 net.cpp:435] obj-block <- obj-label_slice-label_3_split_1
I1127 18:47:56.056669  3435 net.cpp:435] obj-block <- obj-label_slice-label_3_split_2
I1127 18:47:56.056671  3435 net.cpp:435] obj-block <- obj-label_slice-label_3_split_3
I1127 18:47:56.056675  3435 net.cpp:409] obj-block -> obj-block
I1127 18:47:56.056686  3435 net.cpp:144] Setting up obj-block
I1127 18:47:56.056690  3435 net.cpp:151] Top shape: 2 4 38 38 (11552)
I1127 18:47:56.056692  3435 net.cpp:159] Memory required for data: 18438656
I1127 18:47:56.056695  3435 layer_factory.hpp:77] Creating layer obj-block_obj-block_0_split
I1127 18:47:56.056699  3435 net.cpp:94] Creating Layer obj-block_obj-block_0_split
I1127 18:47:56.056705  3435 net.cpp:435] obj-block_obj-block_0_split <- obj-block
I1127 18:47:56.056710  3435 net.cpp:409] obj-block_obj-block_0_split -> obj-block_obj-block_0_split_0
I1127 18:47:56.056713  3435 net.cpp:409] obj-block_obj-block_0_split -> obj-block_obj-block_0_split_1
I1127 18:47:56.056732  3435 net.cpp:144] Setting up obj-block_obj-block_0_split
I1127 18:47:56.056735  3435 net.cpp:151] Top shape: 2 4 38 38 (11552)
I1127 18:47:56.056738  3435 net.cpp:151] Top shape: 2 4 38 38 (11552)
I1127 18:47:56.056740  3435 net.cpp:159] Memory required for data: 18531072
I1127 18:47:56.056743  3435 layer_factory.hpp:77] Creating layer bb-label-norm
I1127 18:47:56.056747  3435 net.cpp:94] Creating Layer bb-label-norm
I1127 18:47:56.056749  3435 net.cpp:435] bb-label-norm <- bbox-label
I1127 18:47:56.056753  3435 net.cpp:435] bb-label-norm <- size-block_size-block_0_split_0
I1127 18:47:56.056756  3435 net.cpp:409] bb-label-norm -> bbox-label-norm
I1127 18:47:56.056773  3435 net.cpp:144] Setting up bb-label-norm
I1127 18:47:56.056777  3435 net.cpp:151] Top shape: 2 4 38 38 (11552)
I1127 18:47:56.056779  3435 net.cpp:159] Memory required for data: 18577280
I1127 18:47:56.056782  3435 layer_factory.hpp:77] Creating layer bb-obj-norm
I1127 18:47:56.056785  3435 net.cpp:94] Creating Layer bb-obj-norm
I1127 18:47:56.056788  3435 net.cpp:435] bb-obj-norm <- bbox-label-norm
I1127 18:47:56.056792  3435 net.cpp:435] bb-obj-norm <- obj-block_obj-block_0_split_0
I1127 18:47:56.056795  3435 net.cpp:409] bb-obj-norm -> bbox-obj-label-norm
I1127 18:47:56.056807  3435 net.cpp:144] Setting up bb-obj-norm
I1127 18:47:56.056823  3435 net.cpp:151] Top shape: 2 4 38 38 (11552)
I1127 18:47:56.056825  3435 net.cpp:159] Memory required for data: 18623488
I1127 18:47:56.056828  3435 layer_factory.hpp:77] Creating layer conv1/7x7_s2
I1127 18:47:56.056854  3435 net.cpp:94] Creating Layer conv1/7x7_s2
I1127 18:47:56.056857  3435 net.cpp:435] conv1/7x7_s2 <- transformed_data
I1127 18:47:56.056861  3435 net.cpp:409] conv1/7x7_s2 -> conv1/7x7_s2
I1127 18:47:56.058296  3435 net.cpp:144] Setting up conv1/7x7_s2
I1127 18:47:56.058321  3435 net.cpp:151] Top shape: 2 64 305 305 (11907200)
I1127 18:47:56.058324  3435 net.cpp:159] Memory required for data: 66252288
I1127 18:47:56.058336  3435 layer_factory.hpp:77] Creating layer conv1/relu_7x7
I1127 18:47:56.058341  3435 net.cpp:94] Creating Layer conv1/relu_7x7
I1127 18:47:56.058344  3435 net.cpp:435] conv1/relu_7x7 <- conv1/7x7_s2
I1127 18:47:56.058348  3435 net.cpp:396] conv1/relu_7x7 -> conv1/7x7_s2 (in-place)
I1127 18:47:56.058358  3435 net.cpp:144] Setting up conv1/relu_7x7
I1127 18:47:56.058362  3435 net.cpp:151] Top shape: 2 64 305 305 (11907200)
I1127 18:47:56.058364  3435 net.cpp:159] Memory required for data: 113881088
I1127 18:47:56.058372  3435 layer_factory.hpp:77] Creating layer pool1/3x3_s2
I1127 18:47:56.058379  3435 net.cpp:94] Creating Layer pool1/3x3_s2
I1127 18:47:56.058382  3435 net.cpp:435] pool1/3x3_s2 <- conv1/7x7_s2
I1127 18:47:56.058387  3435 net.cpp:409] pool1/3x3_s2 -> pool1/3x3_s2
I1127 18:47:56.058421  3435 net.cpp:144] Setting up pool1/3x3_s2
I1127 18:47:56.058439  3435 net.cpp:151] Top shape: 2 64 152 152 (2957312)
I1127 18:47:56.058442  3435 net.cpp:159] Memory required for data: 125710336
I1127 18:47:56.058444  3435 layer_factory.hpp:77] Creating layer pool1/norm1
I1127 18:47:56.058465  3435 net.cpp:94] Creating Layer pool1/norm1
I1127 18:47:56.058467  3435 net.cpp:435] pool1/norm1 <- pool1/3x3_s2
I1127 18:47:56.058476  3435 net.cpp:409] pool1/norm1 -> pool1/norm1
I1127 18:47:56.058509  3435 net.cpp:144] Setting up pool1/norm1
I1127 18:47:56.058513  3435 net.cpp:151] Top shape: 2 64 152 152 (2957312)
I1127 18:47:56.058516  3435 net.cpp:159] Memory required for data: 137539584
I1127 18:47:56.058519  3435 layer_factory.hpp:77] Creating layer conv2/3x3_reduce
I1127 18:47:56.058526  3435 net.cpp:94] Creating Layer conv2/3x3_reduce
I1127 18:47:56.058528  3435 net.cpp:435] conv2/3x3_reduce <- pool1/norm1
I1127 18:47:56.058540  3435 net.cpp:409] conv2/3x3_reduce -> conv2/3x3_reduce
I1127 18:47:56.059520  3435 net.cpp:144] Setting up conv2/3x3_reduce
I1127 18:47:56.059528  3435 net.cpp:151] Top shape: 2 64 152 152 (2957312)
I1127 18:47:56.059531  3435 net.cpp:159] Memory required for data: 149368832
I1127 18:47:56.059538  3435 layer_factory.hpp:77] Creating layer conv2/relu_3x3_reduce
I1127 18:47:56.059542  3435 net.cpp:94] Creating Layer conv2/relu_3x3_reduce
I1127 18:47:56.059546  3435 net.cpp:435] conv2/relu_3x3_reduce <- conv2/3x3_reduce
I1127 18:47:56.059551  3435 net.cpp:396] conv2/relu_3x3_reduce -> conv2/3x3_reduce (in-place)
I1127 18:47:56.059556  3435 net.cpp:144] Setting up conv2/relu_3x3_reduce
I1127 18:47:56.059559  3435 net.cpp:151] Top shape: 2 64 152 152 (2957312)
I1127 18:47:56.059562  3435 net.cpp:159] Memory required for data: 161198080
I1127 18:47:56.059564  3435 layer_factory.hpp:77] Creating layer conv2/3x3
I1127 18:47:56.059571  3435 net.cpp:94] Creating Layer conv2/3x3
I1127 18:47:56.059573  3435 net.cpp:435] conv2/3x3 <- conv2/3x3_reduce
I1127 18:47:56.059577  3435 net.cpp:409] conv2/3x3 -> conv2/3x3
I1127 18:47:56.060237  3435 net.cpp:144] Setting up conv2/3x3
I1127 18:47:56.060245  3435 net.cpp:151] Top shape: 2 192 152 152 (8871936)
I1127 18:47:56.060246  3435 net.cpp:159] Memory required for data: 196685824
I1127 18:47:56.060252  3435 layer_factory.hpp:77] Creating layer conv2/relu_3x3
I1127 18:47:56.060256  3435 net.cpp:94] Creating Layer conv2/relu_3x3
I1127 18:47:56.060259  3435 net.cpp:435] conv2/relu_3x3 <- conv2/3x3
I1127 18:47:56.060263  3435 net.cpp:396] conv2/relu_3x3 -> conv2/3x3 (in-place)
I1127 18:47:56.060268  3435 net.cpp:144] Setting up conv2/relu_3x3
I1127 18:47:56.060271  3435 net.cpp:151] Top shape: 2 192 152 152 (8871936)
I1127 18:47:56.060273  3435 net.cpp:159] Memory required for data: 232173568
I1127 18:47:56.060276  3435 layer_factory.hpp:77] Creating layer conv2/norm2
I1127 18:47:56.060281  3435 net.cpp:94] Creating Layer conv2/norm2
I1127 18:47:56.060282  3435 net.cpp:435] conv2/norm2 <- conv2/3x3
I1127 18:47:56.060286  3435 net.cpp:409] conv2/norm2 -> conv2/norm2
I1127 18:47:56.060309  3435 net.cpp:144] Setting up conv2/norm2
I1127 18:47:56.060313  3435 net.cpp:151] Top shape: 2 192 152 152 (8871936)
I1127 18:47:56.060315  3435 net.cpp:159] Memory required for data: 267661312
I1127 18:47:56.060318  3435 layer_factory.hpp:77] Creating layer pool2/3x3_s2
I1127 18:47:56.060322  3435 net.cpp:94] Creating Layer pool2/3x3_s2
I1127 18:47:56.060325  3435 net.cpp:435] pool2/3x3_s2 <- conv2/norm2
I1127 18:47:56.060329  3435 net.cpp:409] pool2/3x3_s2 -> pool2/3x3_s2
I1127 18:47:56.060349  3435 net.cpp:144] Setting up pool2/3x3_s2
I1127 18:47:56.060353  3435 net.cpp:151] Top shape: 2 192 76 76 (2217984)
I1127 18:47:56.060355  3435 net.cpp:159] Memory required for data: 276533248
I1127 18:47:56.060359  3435 layer_factory.hpp:77] Creating layer pool2/3x3_s2_pool2/3x3_s2_0_split
I1127 18:47:56.060361  3435 net.cpp:94] Creating Layer pool2/3x3_s2_pool2/3x3_s2_0_split
I1127 18:47:56.060365  3435 net.cpp:435] pool2/3x3_s2_pool2/3x3_s2_0_split <- pool2/3x3_s2
I1127 18:47:56.060369  3435 net.cpp:409] pool2/3x3_s2_pool2/3x3_s2_0_split -> pool2/3x3_s2_pool2/3x3_s2_0_split_0
I1127 18:47:56.060374  3435 net.cpp:409] pool2/3x3_s2_pool2/3x3_s2_0_split -> pool2/3x3_s2_pool2/3x3_s2_0_split_1
I1127 18:47:56.060377  3435 net.cpp:409] pool2/3x3_s2_pool2/3x3_s2_0_split -> pool2/3x3_s2_pool2/3x3_s2_0_split_2
I1127 18:47:56.060382  3435 net.cpp:409] pool2/3x3_s2_pool2/3x3_s2_0_split -> pool2/3x3_s2_pool2/3x3_s2_0_split_3
I1127 18:47:56.060415  3435 net.cpp:144] Setting up pool2/3x3_s2_pool2/3x3_s2_0_split
I1127 18:47:56.060418  3435 net.cpp:151] Top shape: 2 192 76 76 (2217984)
I1127 18:47:56.060421  3435 net.cpp:151] Top shape: 2 192 76 76 (2217984)
I1127 18:47:56.060425  3435 net.cpp:151] Top shape: 2 192 76 76 (2217984)
I1127 18:47:56.060426  3435 net.cpp:151] Top shape: 2 192 76 76 (2217984)
I1127 18:47:56.060430  3435 net.cpp:159] Memory required for data: 312020992
I1127 18:47:56.060431  3435 layer_factory.hpp:77] Creating layer inception_3a/1x1
I1127 18:47:56.060444  3435 net.cpp:94] Creating Layer inception_3a/1x1
I1127 18:47:56.060447  3435 net.cpp:435] inception_3a/1x1 <- pool2/3x3_s2_pool2/3x3_s2_0_split_0
I1127 18:47:56.060451  3435 net.cpp:409] inception_3a/1x1 -> inception_3a/1x1
I1127 18:47:56.060657  3435 net.cpp:144] Setting up inception_3a/1x1
I1127 18:47:56.060662  3435 net.cpp:151] Top shape: 2 64 76 76 (739328)
I1127 18:47:56.060664  3435 net.cpp:159] Memory required for data: 314978304
I1127 18:47:56.060668  3435 layer_factory.hpp:77] Creating layer inception_3a/relu_1x1
I1127 18:47:56.060672  3435 net.cpp:94] Creating Layer inception_3a/relu_1x1
I1127 18:47:56.060675  3435 net.cpp:435] inception_3a/relu_1x1 <- inception_3a/1x1
I1127 18:47:56.060679  3435 net.cpp:396] inception_3a/relu_1x1 -> inception_3a/1x1 (in-place)
I1127 18:47:56.060684  3435 net.cpp:144] Setting up inception_3a/relu_1x1
I1127 18:47:56.060688  3435 net.cpp:151] Top shape: 2 64 76 76 (739328)
I1127 18:47:56.060689  3435 net.cpp:159] Memory required for data: 317935616
I1127 18:47:56.060693  3435 layer_factory.hpp:77] Creating layer inception_3a/3x3_reduce
I1127 18:47:56.060698  3435 net.cpp:94] Creating Layer inception_3a/3x3_reduce
I1127 18:47:56.060700  3435 net.cpp:435] inception_3a/3x3_reduce <- pool2/3x3_s2_pool2/3x3_s2_0_split_1
I1127 18:47:56.060704  3435 net.cpp:409] inception_3a/3x3_reduce -> inception_3a/3x3_reduce
I1127 18:47:56.060935  3435 net.cpp:144] Setting up inception_3a/3x3_reduce
I1127 18:47:56.060940  3435 net.cpp:151] Top shape: 2 96 76 76 (1108992)
I1127 18:47:56.060942  3435 net.cpp:159] Memory required for data: 322371584
I1127 18:47:56.060948  3435 layer_factory.hpp:77] Creating layer inception_3a/relu_3x3_reduce
I1127 18:47:56.060952  3435 net.cpp:94] Creating Layer inception_3a/relu_3x3_reduce
I1127 18:47:56.060956  3435 net.cpp:435] inception_3a/relu_3x3_reduce <- inception_3a/3x3_reduce
I1127 18:47:56.060959  3435 net.cpp:396] inception_3a/relu_3x3_reduce -> inception_3a/3x3_reduce (in-place)
I1127 18:47:56.060964  3435 net.cpp:144] Setting up inception_3a/relu_3x3_reduce
I1127 18:47:56.060967  3435 net.cpp:151] Top shape: 2 96 76 76 (1108992)
I1127 18:47:56.060969  3435 net.cpp:159] Memory required for data: 326807552
I1127 18:47:56.060972  3435 layer_factory.hpp:77] Creating layer inception_3a/3x3
I1127 18:47:56.060977  3435 net.cpp:94] Creating Layer inception_3a/3x3
I1127 18:47:56.060981  3435 net.cpp:435] inception_3a/3x3 <- inception_3a/3x3_reduce
I1127 18:47:56.060984  3435 net.cpp:409] inception_3a/3x3 -> inception_3a/3x3
I1127 18:47:56.061990  3435 net.cpp:144] Setting up inception_3a/3x3
I1127 18:47:56.061997  3435 net.cpp:151] Top shape: 2 128 76 76 (1478656)
I1127 18:47:56.062000  3435 net.cpp:159] Memory required for data: 332722176
I1127 18:47:56.062005  3435 layer_factory.hpp:77] Creating layer inception_3a/relu_3x3
I1127 18:47:56.062008  3435 net.cpp:94] Creating Layer inception_3a/relu_3x3
I1127 18:47:56.062011  3435 net.cpp:435] inception_3a/relu_3x3 <- inception_3a/3x3
I1127 18:47:56.062016  3435 net.cpp:396] inception_3a/relu_3x3 -> inception_3a/3x3 (in-place)
I1127 18:47:56.062021  3435 net.cpp:144] Setting up inception_3a/relu_3x3
I1127 18:47:56.062023  3435 net.cpp:151] Top shape: 2 128 76 76 (1478656)
I1127 18:47:56.062026  3435 net.cpp:159] Memory required for data: 338636800
I1127 18:47:56.062028  3435 layer_factory.hpp:77] Creating layer inception_3a/5x5_reduce
I1127 18:47:56.062033  3435 net.cpp:94] Creating Layer inception_3a/5x5_reduce
I1127 18:47:56.062036  3435 net.cpp:435] inception_3a/5x5_reduce <- pool2/3x3_s2_pool2/3x3_s2_0_split_2
I1127 18:47:56.062041  3435 net.cpp:409] inception_3a/5x5_reduce -> inception_3a/5x5_reduce
I1127 18:47:56.062193  3435 net.cpp:144] Setting up inception_3a/5x5_reduce
I1127 18:47:56.062199  3435 net.cpp:151] Top shape: 2 16 76 76 (184832)
I1127 18:47:56.062201  3435 net.cpp:159] Memory required for data: 339376128
I1127 18:47:56.062206  3435 layer_factory.hpp:77] Creating layer inception_3a/relu_5x5_reduce
I1127 18:47:56.062211  3435 net.cpp:94] Creating Layer inception_3a/relu_5x5_reduce
I1127 18:47:56.062221  3435 net.cpp:435] inception_3a/relu_5x5_reduce <- inception_3a/5x5_reduce
I1127 18:47:56.062224  3435 net.cpp:396] inception_3a/relu_5x5_reduce -> inception_3a/5x5_reduce (in-place)
I1127 18:47:56.062229  3435 net.cpp:144] Setting up inception_3a/relu_5x5_reduce
I1127 18:47:56.062233  3435 net.cpp:151] Top shape: 2 16 76 76 (184832)
I1127 18:47:56.062235  3435 net.cpp:159] Memory required for data: 340115456
I1127 18:47:56.062237  3435 layer_factory.hpp:77] Creating layer inception_3a/5x5
I1127 18:47:56.062242  3435 net.cpp:94] Creating Layer inception_3a/5x5
I1127 18:47:56.062245  3435 net.cpp:435] inception_3a/5x5 <- inception_3a/5x5_reduce
I1127 18:47:56.062248  3435 net.cpp:409] inception_3a/5x5 -> inception_3a/5x5
I1127 18:47:56.062445  3435 net.cpp:144] Setting up inception_3a/5x5
I1127 18:47:56.062450  3435 net.cpp:151] Top shape: 2 32 76 76 (369664)
I1127 18:47:56.062453  3435 net.cpp:159] Memory required for data: 341594112
I1127 18:47:56.062458  3435 layer_factory.hpp:77] Creating layer inception_3a/relu_5x5
I1127 18:47:56.062461  3435 net.cpp:94] Creating Layer inception_3a/relu_5x5
I1127 18:47:56.062463  3435 net.cpp:435] inception_3a/relu_5x5 <- inception_3a/5x5
I1127 18:47:56.062468  3435 net.cpp:396] inception_3a/relu_5x5 -> inception_3a/5x5 (in-place)
I1127 18:47:56.062471  3435 net.cpp:144] Setting up inception_3a/relu_5x5
I1127 18:47:56.062474  3435 net.cpp:151] Top shape: 2 32 76 76 (369664)
I1127 18:47:56.062477  3435 net.cpp:159] Memory required for data: 343072768
I1127 18:47:56.062479  3435 layer_factory.hpp:77] Creating layer inception_3a/pool
I1127 18:47:56.062484  3435 net.cpp:94] Creating Layer inception_3a/pool
I1127 18:47:56.062486  3435 net.cpp:435] inception_3a/pool <- pool2/3x3_s2_pool2/3x3_s2_0_split_3
I1127 18:47:56.062489  3435 net.cpp:409] inception_3a/pool -> inception_3a/pool
I1127 18:47:56.062525  3435 net.cpp:144] Setting up inception_3a/pool
I1127 18:47:56.062530  3435 net.cpp:151] Top shape: 2 192 76 76 (2217984)
I1127 18:47:56.062531  3435 net.cpp:159] Memory required for data: 351944704
I1127 18:47:56.062535  3435 layer_factory.hpp:77] Creating layer inception_3a/pool_proj
I1127 18:47:56.062553  3435 net.cpp:94] Creating Layer inception_3a/pool_proj
I1127 18:47:56.062556  3435 net.cpp:435] inception_3a/pool_proj <- inception_3a/pool
I1127 18:47:56.062561  3435 net.cpp:409] inception_3a/pool_proj -> inception_3a/pool_proj
I1127 18:47:56.062741  3435 net.cpp:144] Setting up inception_3a/pool_proj
I1127 18:47:56.062746  3435 net.cpp:151] Top shape: 2 32 76 76 (369664)
I1127 18:47:56.062748  3435 net.cpp:159] Memory required for data: 353423360
I1127 18:47:56.062754  3435 layer_factory.hpp:77] Creating layer inception_3a/relu_pool_proj
I1127 18:47:56.062758  3435 net.cpp:94] Creating Layer inception_3a/relu_pool_proj
I1127 18:47:56.062762  3435 net.cpp:435] inception_3a/relu_pool_proj <- inception_3a/pool_proj
I1127 18:47:56.062764  3435 net.cpp:396] inception_3a/relu_pool_proj -> inception_3a/pool_proj (in-place)
I1127 18:47:56.062769  3435 net.cpp:144] Setting up inception_3a/relu_pool_proj
I1127 18:47:56.062791  3435 net.cpp:151] Top shape: 2 32 76 76 (369664)
I1127 18:47:56.062793  3435 net.cpp:159] Memory required for data: 354902016
I1127 18:47:56.062796  3435 layer_factory.hpp:77] Creating layer inception_3a/output
I1127 18:47:56.062799  3435 net.cpp:94] Creating Layer inception_3a/output
I1127 18:47:56.062803  3435 net.cpp:435] inception_3a/output <- inception_3a/1x1
I1127 18:47:56.062805  3435 net.cpp:435] inception_3a/output <- inception_3a/3x3
I1127 18:47:56.062808  3435 net.cpp:435] inception_3a/output <- inception_3a/5x5
I1127 18:47:56.062827  3435 net.cpp:435] inception_3a/output <- inception_3a/pool_proj
I1127 18:47:56.062831  3435 net.cpp:409] inception_3a/output -> inception_3a/output
I1127 18:47:56.062847  3435 net.cpp:144] Setting up inception_3a/output
I1127 18:47:56.062850  3435 net.cpp:151] Top shape: 2 256 76 76 (2957312)
I1127 18:47:56.062854  3435 net.cpp:159] Memory required for data: 366731264
I1127 18:47:56.062861  3435 layer_factory.hpp:77] Creating layer inception_3a/output_inception_3a/output_0_split
I1127 18:47:56.062865  3435 net.cpp:94] Creating Layer inception_3a/output_inception_3a/output_0_split
I1127 18:47:56.062868  3435 net.cpp:435] inception_3a/output_inception_3a/output_0_split <- inception_3a/output
I1127 18:47:56.062872  3435 net.cpp:409] inception_3a/output_inception_3a/output_0_split -> inception_3a/output_inception_3a/output_0_split_0
I1127 18:47:56.062876  3435 net.cpp:409] inception_3a/output_inception_3a/output_0_split -> inception_3a/output_inception_3a/output_0_split_1
I1127 18:47:56.062881  3435 net.cpp:409] inception_3a/output_inception_3a/output_0_split -> inception_3a/output_inception_3a/output_0_split_2
I1127 18:47:56.062885  3435 net.cpp:409] inception_3a/output_inception_3a/output_0_split -> inception_3a/output_inception_3a/output_0_split_3
I1127 18:47:56.062918  3435 net.cpp:144] Setting up inception_3a/output_inception_3a/output_0_split
I1127 18:47:56.062922  3435 net.cpp:151] Top shape: 2 256 76 76 (2957312)
I1127 18:47:56.062925  3435 net.cpp:151] Top shape: 2 256 76 76 (2957312)
I1127 18:47:56.062928  3435 net.cpp:151] Top shape: 2 256 76 76 (2957312)
I1127 18:47:56.062932  3435 net.cpp:151] Top shape: 2 256 76 76 (2957312)
I1127 18:47:56.062933  3435 net.cpp:159] Memory required for data: 414048256
I1127 18:47:56.062935  3435 layer_factory.hpp:77] Creating layer inception_3b/1x1
I1127 18:47:56.062942  3435 net.cpp:94] Creating Layer inception_3b/1x1
I1127 18:47:56.062944  3435 net.cpp:435] inception_3b/1x1 <- inception_3a/output_inception_3a/output_0_split_0
I1127 18:47:56.062948  3435 net.cpp:409] inception_3b/1x1 -> inception_3b/1x1
I1127 18:47:56.063231  3435 net.cpp:144] Setting up inception_3b/1x1
I1127 18:47:56.063237  3435 net.cpp:151] Top shape: 2 128 76 76 (1478656)
I1127 18:47:56.063240  3435 net.cpp:159] Memory required for data: 419962880
I1127 18:47:56.063243  3435 layer_factory.hpp:77] Creating layer inception_3b/relu_1x1
I1127 18:47:56.063247  3435 net.cpp:94] Creating Layer inception_3b/relu_1x1
I1127 18:47:56.063251  3435 net.cpp:435] inception_3b/relu_1x1 <- inception_3b/1x1
I1127 18:47:56.063253  3435 net.cpp:396] inception_3b/relu_1x1 -> inception_3b/1x1 (in-place)
I1127 18:47:56.063258  3435 net.cpp:144] Setting up inception_3b/relu_1x1
I1127 18:47:56.063261  3435 net.cpp:151] Top shape: 2 128 76 76 (1478656)
I1127 18:47:56.063263  3435 net.cpp:159] Memory required for data: 425877504
I1127 18:47:56.063266  3435 layer_factory.hpp:77] Creating layer inception_3b/3x3_reduce
I1127 18:47:56.063271  3435 net.cpp:94] Creating Layer inception_3b/3x3_reduce
I1127 18:47:56.063274  3435 net.cpp:435] inception_3b/3x3_reduce <- inception_3a/output_inception_3a/output_0_split_1
I1127 18:47:56.063278  3435 net.cpp:409] inception_3b/3x3_reduce -> inception_3b/3x3_reduce
I1127 18:47:56.063561  3435 net.cpp:144] Setting up inception_3b/3x3_reduce
I1127 18:47:56.063566  3435 net.cpp:151] Top shape: 2 128 76 76 (1478656)
I1127 18:47:56.063568  3435 net.cpp:159] Memory required for data: 431792128
I1127 18:47:56.063572  3435 layer_factory.hpp:77] Creating layer inception_3b/relu_3x3_reduce
I1127 18:47:56.063576  3435 net.cpp:94] Creating Layer inception_3b/relu_3x3_reduce
I1127 18:47:56.063580  3435 net.cpp:435] inception_3b/relu_3x3_reduce <- inception_3b/3x3_reduce
I1127 18:47:56.063582  3435 net.cpp:396] inception_3b/relu_3x3_reduce -> inception_3b/3x3_reduce (in-place)
I1127 18:47:56.063587  3435 net.cpp:144] Setting up inception_3b/relu_3x3_reduce
I1127 18:47:56.063591  3435 net.cpp:151] Top shape: 2 128 76 76 (1478656)
I1127 18:47:56.063592  3435 net.cpp:159] Memory required for data: 437706752
I1127 18:47:56.063596  3435 layer_factory.hpp:77] Creating layer inception_3b/3x3
I1127 18:47:56.063601  3435 net.cpp:94] Creating Layer inception_3b/3x3
I1127 18:47:56.063602  3435 net.cpp:435] inception_3b/3x3 <- inception_3b/3x3_reduce
I1127 18:47:56.063606  3435 net.cpp:409] inception_3b/3x3 -> inception_3b/3x3
I1127 18:47:56.065057  3435 net.cpp:144] Setting up inception_3b/3x3
I1127 18:47:56.065070  3435 net.cpp:151] Top shape: 2 192 76 76 (2217984)
I1127 18:47:56.065074  3435 net.cpp:159] Memory required for data: 446578688
I1127 18:47:56.065079  3435 layer_factory.hpp:77] Creating layer inception_3b/relu_3x3
I1127 18:47:56.065083  3435 net.cpp:94] Creating Layer inception_3b/relu_3x3
I1127 18:47:56.065086  3435 net.cpp:435] inception_3b/relu_3x3 <- inception_3b/3x3
I1127 18:47:56.065090  3435 net.cpp:396] inception_3b/relu_3x3 -> inception_3b/3x3 (in-place)
I1127 18:47:56.065095  3435 net.cpp:144] Setting up inception_3b/relu_3x3
I1127 18:47:56.065099  3435 net.cpp:151] Top shape: 2 192 76 76 (2217984)
I1127 18:47:56.065101  3435 net.cpp:159] Memory required for data: 455450624
I1127 18:47:56.065104  3435 layer_factory.hpp:77] Creating layer inception_3b/5x5_reduce
I1127 18:47:56.065109  3435 net.cpp:94] Creating Layer inception_3b/5x5_reduce
I1127 18:47:56.065111  3435 net.cpp:435] inception_3b/5x5_reduce <- inception_3a/output_inception_3a/output_0_split_2
I1127 18:47:56.065115  3435 net.cpp:409] inception_3b/5x5_reduce -> inception_3b/5x5_reduce
I1127 18:47:56.065297  3435 net.cpp:144] Setting up inception_3b/5x5_reduce
I1127 18:47:56.065304  3435 net.cpp:151] Top shape: 2 32 76 76 (369664)
I1127 18:47:56.065305  3435 net.cpp:159] Memory required for data: 456929280
I1127 18:47:56.065310  3435 layer_factory.hpp:77] Creating layer inception_3b/relu_5x5_reduce
I1127 18:47:56.065313  3435 net.cpp:94] Creating Layer inception_3b/relu_5x5_reduce
I1127 18:47:56.065315  3435 net.cpp:435] inception_3b/relu_5x5_reduce <- inception_3b/5x5_reduce
I1127 18:47:56.065320  3435 net.cpp:396] inception_3b/relu_5x5_reduce -> inception_3b/5x5_reduce (in-place)
I1127 18:47:56.065323  3435 net.cpp:144] Setting up inception_3b/relu_5x5_reduce
I1127 18:47:56.065326  3435 net.cpp:151] Top shape: 2 32 76 76 (369664)
I1127 18:47:56.065330  3435 net.cpp:159] Memory required for data: 458407936
I1127 18:47:56.065331  3435 layer_factory.hpp:77] Creating layer inception_3b/5x5
I1127 18:47:56.065336  3435 net.cpp:94] Creating Layer inception_3b/5x5
I1127 18:47:56.065338  3435 net.cpp:435] inception_3b/5x5 <- inception_3b/5x5_reduce
I1127 18:47:56.065342  3435 net.cpp:409] inception_3b/5x5 -> inception_3b/5x5
I1127 18:47:56.065822  3435 net.cpp:144] Setting up inception_3b/5x5
I1127 18:47:56.065827  3435 net.cpp:151] Top shape: 2 96 76 76 (1108992)
I1127 18:47:56.065830  3435 net.cpp:159] Memory required for data: 462843904
I1127 18:47:56.065834  3435 layer_factory.hpp:77] Creating layer inception_3b/relu_5x5
I1127 18:47:56.065837  3435 net.cpp:94] Creating Layer inception_3b/relu_5x5
I1127 18:47:56.065840  3435 net.cpp:435] inception_3b/relu_5x5 <- inception_3b/5x5
I1127 18:47:56.065843  3435 net.cpp:396] inception_3b/relu_5x5 -> inception_3b/5x5 (in-place)
I1127 18:47:56.065847  3435 net.cpp:144] Setting up inception_3b/relu_5x5
I1127 18:47:56.065851  3435 net.cpp:151] Top shape: 2 96 76 76 (1108992)
I1127 18:47:56.065853  3435 net.cpp:159] Memory required for data: 467279872
I1127 18:47:56.065855  3435 layer_factory.hpp:77] Creating layer inception_3b/pool
I1127 18:47:56.065860  3435 net.cpp:94] Creating Layer inception_3b/pool
I1127 18:47:56.065861  3435 net.cpp:435] inception_3b/pool <- inception_3a/output_inception_3a/output_0_split_3
I1127 18:47:56.065865  3435 net.cpp:409] inception_3b/pool -> inception_3b/pool
I1127 18:47:56.065888  3435 net.cpp:144] Setting up inception_3b/pool
I1127 18:47:56.065894  3435 net.cpp:151] Top shape: 2 256 76 76 (2957312)
I1127 18:47:56.065896  3435 net.cpp:159] Memory required for data: 479109120
I1127 18:47:56.065899  3435 layer_factory.hpp:77] Creating layer inception_3b/pool_proj
I1127 18:47:56.065904  3435 net.cpp:94] Creating Layer inception_3b/pool_proj
I1127 18:47:56.065907  3435 net.cpp:435] inception_3b/pool_proj <- inception_3b/pool
I1127 18:47:56.065912  3435 net.cpp:409] inception_3b/pool_proj -> inception_3b/pool_proj
I1127 18:47:56.066961  3435 net.cpp:144] Setting up inception_3b/pool_proj
I1127 18:47:56.066972  3435 net.cpp:151] Top shape: 2 64 76 76 (739328)
I1127 18:47:56.066982  3435 net.cpp:159] Memory required for data: 482066432
I1127 18:47:56.066988  3435 layer_factory.hpp:77] Creating layer inception_3b/relu_pool_proj
I1127 18:47:56.066993  3435 net.cpp:94] Creating Layer inception_3b/relu_pool_proj
I1127 18:47:56.066997  3435 net.cpp:435] inception_3b/relu_pool_proj <- inception_3b/pool_proj
I1127 18:47:56.067000  3435 net.cpp:396] inception_3b/relu_pool_proj -> inception_3b/pool_proj (in-place)
I1127 18:47:56.067008  3435 net.cpp:144] Setting up inception_3b/relu_pool_proj
I1127 18:47:56.067010  3435 net.cpp:151] Top shape: 2 64 76 76 (739328)
I1127 18:47:56.067013  3435 net.cpp:159] Memory required for data: 485023744
I1127 18:47:56.067015  3435 layer_factory.hpp:77] Creating layer inception_3b/output
I1127 18:47:56.067019  3435 net.cpp:94] Creating Layer inception_3b/output
I1127 18:47:56.067023  3435 net.cpp:435] inception_3b/output <- inception_3b/1x1
I1127 18:47:56.067025  3435 net.cpp:435] inception_3b/output <- inception_3b/3x3
I1127 18:47:56.067028  3435 net.cpp:435] inception_3b/output <- inception_3b/5x5
I1127 18:47:56.067031  3435 net.cpp:435] inception_3b/output <- inception_3b/pool_proj
I1127 18:47:56.067034  3435 net.cpp:409] inception_3b/output -> inception_3b/output
I1127 18:47:56.067051  3435 net.cpp:144] Setting up inception_3b/output
I1127 18:47:56.067055  3435 net.cpp:151] Top shape: 2 480 76 76 (5544960)
I1127 18:47:56.067057  3435 net.cpp:159] Memory required for data: 507203584
I1127 18:47:56.067060  3435 layer_factory.hpp:77] Creating layer pool3/3x3_s2
I1127 18:47:56.067065  3435 net.cpp:94] Creating Layer pool3/3x3_s2
I1127 18:47:56.067067  3435 net.cpp:435] pool3/3x3_s2 <- inception_3b/output
I1127 18:47:56.067071  3435 net.cpp:409] pool3/3x3_s2 -> pool3/3x3_s2
I1127 18:47:56.067093  3435 net.cpp:144] Setting up pool3/3x3_s2
I1127 18:47:56.067097  3435 net.cpp:151] Top shape: 2 480 38 38 (1386240)
I1127 18:47:56.067100  3435 net.cpp:159] Memory required for data: 512748544
I1127 18:47:56.067102  3435 layer_factory.hpp:77] Creating layer pool3/3x3_s2_pool3/3x3_s2_0_split
I1127 18:47:56.067106  3435 net.cpp:94] Creating Layer pool3/3x3_s2_pool3/3x3_s2_0_split
I1127 18:47:56.067108  3435 net.cpp:435] pool3/3x3_s2_pool3/3x3_s2_0_split <- pool3/3x3_s2
I1127 18:47:56.067112  3435 net.cpp:409] pool3/3x3_s2_pool3/3x3_s2_0_split -> pool3/3x3_s2_pool3/3x3_s2_0_split_0
I1127 18:47:56.067117  3435 net.cpp:409] pool3/3x3_s2_pool3/3x3_s2_0_split -> pool3/3x3_s2_pool3/3x3_s2_0_split_1
I1127 18:47:56.067121  3435 net.cpp:409] pool3/3x3_s2_pool3/3x3_s2_0_split -> pool3/3x3_s2_pool3/3x3_s2_0_split_2
I1127 18:47:56.067126  3435 net.cpp:409] pool3/3x3_s2_pool3/3x3_s2_0_split -> pool3/3x3_s2_pool3/3x3_s2_0_split_3
I1127 18:47:56.067160  3435 net.cpp:144] Setting up pool3/3x3_s2_pool3/3x3_s2_0_split
I1127 18:47:56.067163  3435 net.cpp:151] Top shape: 2 480 38 38 (1386240)
I1127 18:47:56.067167  3435 net.cpp:151] Top shape: 2 480 38 38 (1386240)
I1127 18:47:56.067169  3435 net.cpp:151] Top shape: 2 480 38 38 (1386240)
I1127 18:47:56.067173  3435 net.cpp:151] Top shape: 2 480 38 38 (1386240)
I1127 18:47:56.067174  3435 net.cpp:159] Memory required for data: 534928384
I1127 18:47:56.067178  3435 layer_factory.hpp:77] Creating layer inception_4a/1x1
I1127 18:47:56.067183  3435 net.cpp:94] Creating Layer inception_4a/1x1
I1127 18:47:56.067185  3435 net.cpp:435] inception_4a/1x1 <- pool3/3x3_s2_pool3/3x3_s2_0_split_0
I1127 18:47:56.067190  3435 net.cpp:409] inception_4a/1x1 -> inception_4a/1x1
I1127 18:47:56.068122  3435 net.cpp:144] Setting up inception_4a/1x1
I1127 18:47:56.068136  3435 net.cpp:151] Top shape: 2 192 38 38 (554496)
I1127 18:47:56.068140  3435 net.cpp:159] Memory required for data: 537146368
I1127 18:47:56.068145  3435 layer_factory.hpp:77] Creating layer inception_4a/relu_1x1
I1127 18:47:56.068148  3435 net.cpp:94] Creating Layer inception_4a/relu_1x1
I1127 18:47:56.068151  3435 net.cpp:435] inception_4a/relu_1x1 <- inception_4a/1x1
I1127 18:47:56.068156  3435 net.cpp:396] inception_4a/relu_1x1 -> inception_4a/1x1 (in-place)
I1127 18:47:56.068167  3435 net.cpp:144] Setting up inception_4a/relu_1x1
I1127 18:47:56.068171  3435 net.cpp:151] Top shape: 2 192 38 38 (554496)
I1127 18:47:56.068174  3435 net.cpp:159] Memory required for data: 539364352
I1127 18:47:56.068176  3435 layer_factory.hpp:77] Creating layer inception_4a/3x3_reduce
I1127 18:47:56.068182  3435 net.cpp:94] Creating Layer inception_4a/3x3_reduce
I1127 18:47:56.068186  3435 net.cpp:435] inception_4a/3x3_reduce <- pool3/3x3_s2_pool3/3x3_s2_0_split_1
I1127 18:47:56.068189  3435 net.cpp:409] inception_4a/3x3_reduce -> inception_4a/3x3_reduce
I1127 18:47:56.068555  3435 net.cpp:144] Setting up inception_4a/3x3_reduce
I1127 18:47:56.068560  3435 net.cpp:151] Top shape: 2 96 38 38 (277248)
I1127 18:47:56.068563  3435 net.cpp:159] Memory required for data: 540473344
I1127 18:47:56.068570  3435 layer_factory.hpp:77] Creating layer inception_4a/relu_3x3_reduce
I1127 18:47:56.068575  3435 net.cpp:94] Creating Layer inception_4a/relu_3x3_reduce
I1127 18:47:56.068578  3435 net.cpp:435] inception_4a/relu_3x3_reduce <- inception_4a/3x3_reduce
I1127 18:47:56.068581  3435 net.cpp:396] inception_4a/relu_3x3_reduce -> inception_4a/3x3_reduce (in-place)
I1127 18:47:56.068586  3435 net.cpp:144] Setting up inception_4a/relu_3x3_reduce
I1127 18:47:56.068590  3435 net.cpp:151] Top shape: 2 96 38 38 (277248)
I1127 18:47:56.068593  3435 net.cpp:159] Memory required for data: 541582336
I1127 18:47:56.068594  3435 layer_factory.hpp:77] Creating layer inception_4a/3x3
I1127 18:47:56.068600  3435 net.cpp:94] Creating Layer inception_4a/3x3
I1127 18:47:56.068603  3435 net.cpp:435] inception_4a/3x3 <- inception_4a/3x3_reduce
I1127 18:47:56.068606  3435 net.cpp:409] inception_4a/3x3 -> inception_4a/3x3
I1127 18:47:56.069908  3435 net.cpp:144] Setting up inception_4a/3x3
I1127 18:47:56.069916  3435 net.cpp:151] Top shape: 2 208 38 38 (600704)
I1127 18:47:56.069919  3435 net.cpp:159] Memory required for data: 543985152
I1127 18:47:56.069923  3435 layer_factory.hpp:77] Creating layer inception_4a/relu_3x3
I1127 18:47:56.069928  3435 net.cpp:94] Creating Layer inception_4a/relu_3x3
I1127 18:47:56.069931  3435 net.cpp:435] inception_4a/relu_3x3 <- inception_4a/3x3
I1127 18:47:56.069934  3435 net.cpp:396] inception_4a/relu_3x3 -> inception_4a/3x3 (in-place)
I1127 18:47:56.069939  3435 net.cpp:144] Setting up inception_4a/relu_3x3
I1127 18:47:56.069943  3435 net.cpp:151] Top shape: 2 208 38 38 (600704)
I1127 18:47:56.069946  3435 net.cpp:159] Memory required for data: 546387968
I1127 18:47:56.069947  3435 layer_factory.hpp:77] Creating layer inception_4a/5x5_reduce
I1127 18:47:56.069953  3435 net.cpp:94] Creating Layer inception_4a/5x5_reduce
I1127 18:47:56.069957  3435 net.cpp:435] inception_4a/5x5_reduce <- pool3/3x3_s2_pool3/3x3_s2_0_split_2
I1127 18:47:56.069960  3435 net.cpp:409] inception_4a/5x5_reduce -> inception_4a/5x5_reduce
I1127 18:47:56.070150  3435 net.cpp:144] Setting up inception_4a/5x5_reduce
I1127 18:47:56.070155  3435 net.cpp:151] Top shape: 2 16 38 38 (46208)
I1127 18:47:56.070158  3435 net.cpp:159] Memory required for data: 546572800
I1127 18:47:56.070161  3435 layer_factory.hpp:77] Creating layer inception_4a/relu_5x5_reduce
I1127 18:47:56.070165  3435 net.cpp:94] Creating Layer inception_4a/relu_5x5_reduce
I1127 18:47:56.070168  3435 net.cpp:435] inception_4a/relu_5x5_reduce <- inception_4a/5x5_reduce
I1127 18:47:56.070171  3435 net.cpp:396] inception_4a/relu_5x5_reduce -> inception_4a/5x5_reduce (in-place)
I1127 18:47:56.070176  3435 net.cpp:144] Setting up inception_4a/relu_5x5_reduce
I1127 18:47:56.070179  3435 net.cpp:151] Top shape: 2 16 38 38 (46208)
I1127 18:47:56.070181  3435 net.cpp:159] Memory required for data: 546757632
I1127 18:47:56.070184  3435 layer_factory.hpp:77] Creating layer inception_4a/5x5
I1127 18:47:56.070194  3435 net.cpp:94] Creating Layer inception_4a/5x5
I1127 18:47:56.070196  3435 net.cpp:435] inception_4a/5x5 <- inception_4a/5x5_reduce
I1127 18:47:56.070200  3435 net.cpp:409] inception_4a/5x5 -> inception_4a/5x5
I1127 18:47:56.070438  3435 net.cpp:144] Setting up inception_4a/5x5
I1127 18:47:56.070451  3435 net.cpp:151] Top shape: 2 48 38 38 (138624)
I1127 18:47:56.070453  3435 net.cpp:159] Memory required for data: 547312128
I1127 18:47:56.070458  3435 layer_factory.hpp:77] Creating layer inception_4a/relu_5x5
I1127 18:47:56.070462  3435 net.cpp:94] Creating Layer inception_4a/relu_5x5
I1127 18:47:56.070464  3435 net.cpp:435] inception_4a/relu_5x5 <- inception_4a/5x5
I1127 18:47:56.070468  3435 net.cpp:396] inception_4a/relu_5x5 -> inception_4a/5x5 (in-place)
I1127 18:47:56.070472  3435 net.cpp:144] Setting up inception_4a/relu_5x5
I1127 18:47:56.070477  3435 net.cpp:151] Top shape: 2 48 38 38 (138624)
I1127 18:47:56.070478  3435 net.cpp:159] Memory required for data: 547866624
I1127 18:47:56.070480  3435 layer_factory.hpp:77] Creating layer inception_4a/pool
I1127 18:47:56.070484  3435 net.cpp:94] Creating Layer inception_4a/pool
I1127 18:47:56.070487  3435 net.cpp:435] inception_4a/pool <- pool3/3x3_s2_pool3/3x3_s2_0_split_3
I1127 18:47:56.070490  3435 net.cpp:409] inception_4a/pool -> inception_4a/pool
I1127 18:47:56.070515  3435 net.cpp:144] Setting up inception_4a/pool
I1127 18:47:56.070518  3435 net.cpp:151] Top shape: 2 480 38 38 (1386240)
I1127 18:47:56.070521  3435 net.cpp:159] Memory required for data: 553411584
I1127 18:47:56.070523  3435 layer_factory.hpp:77] Creating layer inception_4a/pool_proj
I1127 18:47:56.070528  3435 net.cpp:94] Creating Layer inception_4a/pool_proj
I1127 18:47:56.070531  3435 net.cpp:435] inception_4a/pool_proj <- inception_4a/pool
I1127 18:47:56.070535  3435 net.cpp:409] inception_4a/pool_proj -> inception_4a/pool_proj
I1127 18:47:56.070824  3435 net.cpp:144] Setting up inception_4a/pool_proj
I1127 18:47:56.070830  3435 net.cpp:151] Top shape: 2 64 38 38 (184832)
I1127 18:47:56.070832  3435 net.cpp:159] Memory required for data: 554150912
I1127 18:47:56.070837  3435 layer_factory.hpp:77] Creating layer inception_4a/relu_pool_proj
I1127 18:47:56.070840  3435 net.cpp:94] Creating Layer inception_4a/relu_pool_proj
I1127 18:47:56.070842  3435 net.cpp:435] inception_4a/relu_pool_proj <- inception_4a/pool_proj
I1127 18:47:56.070847  3435 net.cpp:396] inception_4a/relu_pool_proj -> inception_4a/pool_proj (in-place)
I1127 18:47:56.070850  3435 net.cpp:144] Setting up inception_4a/relu_pool_proj
I1127 18:47:56.070853  3435 net.cpp:151] Top shape: 2 64 38 38 (184832)
I1127 18:47:56.070855  3435 net.cpp:159] Memory required for data: 554890240
I1127 18:47:56.070858  3435 layer_factory.hpp:77] Creating layer inception_4a/output
I1127 18:47:56.070861  3435 net.cpp:94] Creating Layer inception_4a/output
I1127 18:47:56.070864  3435 net.cpp:435] inception_4a/output <- inception_4a/1x1
I1127 18:47:56.070868  3435 net.cpp:435] inception_4a/output <- inception_4a/3x3
I1127 18:47:56.070870  3435 net.cpp:435] inception_4a/output <- inception_4a/5x5
I1127 18:47:56.070873  3435 net.cpp:435] inception_4a/output <- inception_4a/pool_proj
I1127 18:47:56.070878  3435 net.cpp:409] inception_4a/output -> inception_4a/output
I1127 18:47:56.070891  3435 net.cpp:144] Setting up inception_4a/output
I1127 18:47:56.070895  3435 net.cpp:151] Top shape: 2 512 38 38 (1478656)
I1127 18:47:56.070897  3435 net.cpp:159] Memory required for data: 560804864
I1127 18:47:56.070899  3435 layer_factory.hpp:77] Creating layer inception_4a/output_inception_4a/output_0_split
I1127 18:47:56.070904  3435 net.cpp:94] Creating Layer inception_4a/output_inception_4a/output_0_split
I1127 18:47:56.070906  3435 net.cpp:435] inception_4a/output_inception_4a/output_0_split <- inception_4a/output
I1127 18:47:56.070910  3435 net.cpp:409] inception_4a/output_inception_4a/output_0_split -> inception_4a/output_inception_4a/output_0_split_0
I1127 18:47:56.070914  3435 net.cpp:409] inception_4a/output_inception_4a/output_0_split -> inception_4a/output_inception_4a/output_0_split_1
I1127 18:47:56.070919  3435 net.cpp:409] inception_4a/output_inception_4a/output_0_split -> inception_4a/output_inception_4a/output_0_split_2
I1127 18:47:56.070924  3435 net.cpp:409] inception_4a/output_inception_4a/output_0_split -> inception_4a/output_inception_4a/output_0_split_3
I1127 18:47:56.070963  3435 net.cpp:144] Setting up inception_4a/output_inception_4a/output_0_split
I1127 18:47:56.070967  3435 net.cpp:151] Top shape: 2 512 38 38 (1478656)
I1127 18:47:56.070971  3435 net.cpp:151] Top shape: 2 512 38 38 (1478656)
I1127 18:47:56.070973  3435 net.cpp:151] Top shape: 2 512 38 38 (1478656)
I1127 18:47:56.070976  3435 net.cpp:151] Top shape: 2 512 38 38 (1478656)
I1127 18:47:56.070978  3435 net.cpp:159] Memory required for data: 584463360
I1127 18:47:56.070981  3435 layer_factory.hpp:77] Creating layer inception_4b/1x1
I1127 18:47:56.070986  3435 net.cpp:94] Creating Layer inception_4b/1x1
I1127 18:47:56.070989  3435 net.cpp:435] inception_4b/1x1 <- inception_4a/output_inception_4a/output_0_split_0
I1127 18:47:56.070993  3435 net.cpp:409] inception_4b/1x1 -> inception_4b/1x1
I1127 18:47:56.071506  3435 net.cpp:144] Setting up inception_4b/1x1
I1127 18:47:56.071511  3435 net.cpp:151] Top shape: 2 160 38 38 (462080)
I1127 18:47:56.071512  3435 net.cpp:159] Memory required for data: 586311680
I1127 18:47:56.071516  3435 layer_factory.hpp:77] Creating layer inception_4b/relu_1x1
I1127 18:47:56.071521  3435 net.cpp:94] Creating Layer inception_4b/relu_1x1
I1127 18:47:56.071523  3435 net.cpp:435] inception_4b/relu_1x1 <- inception_4b/1x1
I1127 18:47:56.071527  3435 net.cpp:396] inception_4b/relu_1x1 -> inception_4b/1x1 (in-place)
I1127 18:47:56.071532  3435 net.cpp:144] Setting up inception_4b/relu_1x1
I1127 18:47:56.071534  3435 net.cpp:151] Top shape: 2 160 38 38 (462080)
I1127 18:47:56.071537  3435 net.cpp:159] Memory required for data: 588160000
I1127 18:47:56.071538  3435 layer_factory.hpp:77] Creating layer inception_4b/3x3_reduce
I1127 18:47:56.071543  3435 net.cpp:94] Creating Layer inception_4b/3x3_reduce
I1127 18:47:56.071547  3435 net.cpp:435] inception_4b/3x3_reduce <- inception_4a/output_inception_4a/output_0_split_1
I1127 18:47:56.071550  3435 net.cpp:409] inception_4b/3x3_reduce -> inception_4b/3x3_reduce
I1127 18:47:56.072314  3435 net.cpp:144] Setting up inception_4b/3x3_reduce
I1127 18:47:56.072324  3435 net.cpp:151] Top shape: 2 112 38 38 (323456)
I1127 18:47:56.072326  3435 net.cpp:159] Memory required for data: 589453824
I1127 18:47:56.072330  3435 layer_factory.hpp:77] Creating layer inception_4b/relu_3x3_reduce
I1127 18:47:56.072335  3435 net.cpp:94] Creating Layer inception_4b/relu_3x3_reduce
I1127 18:47:56.072337  3435 net.cpp:435] inception_4b/relu_3x3_reduce <- inception_4b/3x3_reduce
I1127 18:47:56.072341  3435 net.cpp:396] inception_4b/relu_3x3_reduce -> inception_4b/3x3_reduce (in-place)
I1127 18:47:56.072346  3435 net.cpp:144] Setting up inception_4b/relu_3x3_reduce
I1127 18:47:56.072350  3435 net.cpp:151] Top shape: 2 112 38 38 (323456)
I1127 18:47:56.072351  3435 net.cpp:159] Memory required for data: 590747648
I1127 18:47:56.072355  3435 layer_factory.hpp:77] Creating layer inception_4b/3x3
I1127 18:47:56.072360  3435 net.cpp:94] Creating Layer inception_4b/3x3
I1127 18:47:56.072362  3435 net.cpp:435] inception_4b/3x3 <- inception_4b/3x3_reduce
I1127 18:47:56.072366  3435 net.cpp:409] inception_4b/3x3 -> inception_4b/3x3
I1127 18:47:56.073871  3435 net.cpp:144] Setting up inception_4b/3x3
I1127 18:47:56.073879  3435 net.cpp:151] Top shape: 2 224 38 38 (646912)
I1127 18:47:56.073882  3435 net.cpp:159] Memory required for data: 593335296
I1127 18:47:56.073886  3435 layer_factory.hpp:77] Creating layer inception_4b/relu_3x3
I1127 18:47:56.073890  3435 net.cpp:94] Creating Layer inception_4b/relu_3x3
I1127 18:47:56.073894  3435 net.cpp:435] inception_4b/relu_3x3 <- inception_4b/3x3
I1127 18:47:56.073897  3435 net.cpp:396] inception_4b/relu_3x3 -> inception_4b/3x3 (in-place)
I1127 18:47:56.073902  3435 net.cpp:144] Setting up inception_4b/relu_3x3
I1127 18:47:56.073905  3435 net.cpp:151] Top shape: 2 224 38 38 (646912)
I1127 18:47:56.073907  3435 net.cpp:159] Memory required for data: 595922944
I1127 18:47:56.073910  3435 layer_factory.hpp:77] Creating layer inception_4b/5x5_reduce
I1127 18:47:56.073915  3435 net.cpp:94] Creating Layer inception_4b/5x5_reduce
I1127 18:47:56.073925  3435 net.cpp:435] inception_4b/5x5_reduce <- inception_4a/output_inception_4a/output_0_split_2
I1127 18:47:56.073930  3435 net.cpp:409] inception_4b/5x5_reduce -> inception_4b/5x5_reduce
I1127 18:47:56.074141  3435 net.cpp:144] Setting up inception_4b/5x5_reduce
I1127 18:47:56.074146  3435 net.cpp:151] Top shape: 2 24 38 38 (69312)
I1127 18:47:56.074149  3435 net.cpp:159] Memory required for data: 596200192
I1127 18:47:56.074153  3435 layer_factory.hpp:77] Creating layer inception_4b/relu_5x5_reduce
I1127 18:47:56.074157  3435 net.cpp:94] Creating Layer inception_4b/relu_5x5_reduce
I1127 18:47:56.074159  3435 net.cpp:435] inception_4b/relu_5x5_reduce <- inception_4b/5x5_reduce
I1127 18:47:56.074163  3435 net.cpp:396] inception_4b/relu_5x5_reduce -> inception_4b/5x5_reduce (in-place)
I1127 18:47:56.074167  3435 net.cpp:144] Setting up inception_4b/relu_5x5_reduce
I1127 18:47:56.074172  3435 net.cpp:151] Top shape: 2 24 38 38 (69312)
I1127 18:47:56.074173  3435 net.cpp:159] Memory required for data: 596477440
I1127 18:47:56.074175  3435 layer_factory.hpp:77] Creating layer inception_4b/5x5
I1127 18:47:56.074180  3435 net.cpp:94] Creating Layer inception_4b/5x5
I1127 18:47:56.074183  3435 net.cpp:435] inception_4b/5x5 <- inception_4b/5x5_reduce
I1127 18:47:56.074187  3435 net.cpp:409] inception_4b/5x5 -> inception_4b/5x5
I1127 18:47:56.074511  3435 net.cpp:144] Setting up inception_4b/5x5
I1127 18:47:56.074515  3435 net.cpp:151] Top shape: 2 64 38 38 (184832)
I1127 18:47:56.074518  3435 net.cpp:159] Memory required for data: 597216768
I1127 18:47:56.074522  3435 layer_factory.hpp:77] Creating layer inception_4b/relu_5x5
I1127 18:47:56.074525  3435 net.cpp:94] Creating Layer inception_4b/relu_5x5
I1127 18:47:56.074528  3435 net.cpp:435] inception_4b/relu_5x5 <- inception_4b/5x5
I1127 18:47:56.074532  3435 net.cpp:396] inception_4b/relu_5x5 -> inception_4b/5x5 (in-place)
I1127 18:47:56.074537  3435 net.cpp:144] Setting up inception_4b/relu_5x5
I1127 18:47:56.074539  3435 net.cpp:151] Top shape: 2 64 38 38 (184832)
I1127 18:47:56.074542  3435 net.cpp:159] Memory required for data: 597956096
I1127 18:47:56.074543  3435 layer_factory.hpp:77] Creating layer inception_4b/pool
I1127 18:47:56.074548  3435 net.cpp:94] Creating Layer inception_4b/pool
I1127 18:47:56.074550  3435 net.cpp:435] inception_4b/pool <- inception_4a/output_inception_4a/output_0_split_3
I1127 18:47:56.074554  3435 net.cpp:409] inception_4b/pool -> inception_4b/pool
I1127 18:47:56.074579  3435 net.cpp:144] Setting up inception_4b/pool
I1127 18:47:56.074582  3435 net.cpp:151] Top shape: 2 512 38 38 (1478656)
I1127 18:47:56.074584  3435 net.cpp:159] Memory required for data: 603870720
I1127 18:47:56.074586  3435 layer_factory.hpp:77] Creating layer inception_4b/pool_proj
I1127 18:47:56.074591  3435 net.cpp:94] Creating Layer inception_4b/pool_proj
I1127 18:47:56.074594  3435 net.cpp:435] inception_4b/pool_proj <- inception_4b/pool
I1127 18:47:56.074599  3435 net.cpp:409] inception_4b/pool_proj -> inception_4b/pool_proj
I1127 18:47:56.074894  3435 net.cpp:144] Setting up inception_4b/pool_proj
I1127 18:47:56.074899  3435 net.cpp:151] Top shape: 2 64 38 38 (184832)
I1127 18:47:56.074903  3435 net.cpp:159] Memory required for data: 604610048
I1127 18:47:56.074906  3435 layer_factory.hpp:77] Creating layer inception_4b/relu_pool_proj
I1127 18:47:56.074909  3435 net.cpp:94] Creating Layer inception_4b/relu_pool_proj
I1127 18:47:56.074913  3435 net.cpp:435] inception_4b/relu_pool_proj <- inception_4b/pool_proj
I1127 18:47:56.074915  3435 net.cpp:396] inception_4b/relu_pool_proj -> inception_4b/pool_proj (in-place)
I1127 18:47:56.074920  3435 net.cpp:144] Setting up inception_4b/relu_pool_proj
I1127 18:47:56.074923  3435 net.cpp:151] Top shape: 2 64 38 38 (184832)
I1127 18:47:56.074925  3435 net.cpp:159] Memory required for data: 605349376
I1127 18:47:56.074928  3435 layer_factory.hpp:77] Creating layer inception_4b/output
I1127 18:47:56.074931  3435 net.cpp:94] Creating Layer inception_4b/output
I1127 18:47:56.074934  3435 net.cpp:435] inception_4b/output <- inception_4b/1x1
I1127 18:47:56.074942  3435 net.cpp:435] inception_4b/output <- inception_4b/3x3
I1127 18:47:56.074946  3435 net.cpp:435] inception_4b/output <- inception_4b/5x5
I1127 18:47:56.074949  3435 net.cpp:435] inception_4b/output <- inception_4b/pool_proj
I1127 18:47:56.074952  3435 net.cpp:409] inception_4b/output -> inception_4b/output
I1127 18:47:56.074968  3435 net.cpp:144] Setting up inception_4b/output
I1127 18:47:56.074972  3435 net.cpp:151] Top shape: 2 512 38 38 (1478656)
I1127 18:47:56.074975  3435 net.cpp:159] Memory required for data: 611264000
I1127 18:47:56.074976  3435 layer_factory.hpp:77] Creating layer inception_4b/output_inception_4b/output_0_split
I1127 18:47:56.074980  3435 net.cpp:94] Creating Layer inception_4b/output_inception_4b/output_0_split
I1127 18:47:56.074983  3435 net.cpp:435] inception_4b/output_inception_4b/output_0_split <- inception_4b/output
I1127 18:47:56.074986  3435 net.cpp:409] inception_4b/output_inception_4b/output_0_split -> inception_4b/output_inception_4b/output_0_split_0
I1127 18:47:56.074991  3435 net.cpp:409] inception_4b/output_inception_4b/output_0_split -> inception_4b/output_inception_4b/output_0_split_1
I1127 18:47:56.074995  3435 net.cpp:409] inception_4b/output_inception_4b/output_0_split -> inception_4b/output_inception_4b/output_0_split_2
I1127 18:47:56.075000  3435 net.cpp:409] inception_4b/output_inception_4b/output_0_split -> inception_4b/output_inception_4b/output_0_split_3
I1127 18:47:56.075036  3435 net.cpp:144] Setting up inception_4b/output_inception_4b/output_0_split
I1127 18:47:56.075039  3435 net.cpp:151] Top shape: 2 512 38 38 (1478656)
I1127 18:47:56.075042  3435 net.cpp:151] Top shape: 2 512 38 38 (1478656)
I1127 18:47:56.075045  3435 net.cpp:151] Top shape: 2 512 38 38 (1478656)
I1127 18:47:56.075047  3435 net.cpp:151] Top shape: 2 512 38 38 (1478656)
I1127 18:47:56.075050  3435 net.cpp:159] Memory required for data: 634922496
I1127 18:47:56.075052  3435 layer_factory.hpp:77] Creating layer inception_4c/1x1
I1127 18:47:56.075057  3435 net.cpp:94] Creating Layer inception_4c/1x1
I1127 18:47:56.075059  3435 net.cpp:435] inception_4c/1x1 <- inception_4b/output_inception_4b/output_0_split_0
I1127 18:47:56.075064  3435 net.cpp:409] inception_4c/1x1 -> inception_4c/1x1
I1127 18:47:56.075507  3435 net.cpp:144] Setting up inception_4c/1x1
I1127 18:47:56.075513  3435 net.cpp:151] Top shape: 2 128 38 38 (369664)
I1127 18:47:56.075515  3435 net.cpp:159] Memory required for data: 636401152
I1127 18:47:56.075520  3435 layer_factory.hpp:77] Creating layer inception_4c/relu_1x1
I1127 18:47:56.075523  3435 net.cpp:94] Creating Layer inception_4c/relu_1x1
I1127 18:47:56.075526  3435 net.cpp:435] inception_4c/relu_1x1 <- inception_4c/1x1
I1127 18:47:56.075530  3435 net.cpp:396] inception_4c/relu_1x1 -> inception_4c/1x1 (in-place)
I1127 18:47:56.075534  3435 net.cpp:144] Setting up inception_4c/relu_1x1
I1127 18:47:56.075537  3435 net.cpp:151] Top shape: 2 128 38 38 (369664)
I1127 18:47:56.075539  3435 net.cpp:159] Memory required for data: 637879808
I1127 18:47:56.075541  3435 layer_factory.hpp:77] Creating layer inception_4c/3x3_reduce
I1127 18:47:56.075546  3435 net.cpp:94] Creating Layer inception_4c/3x3_reduce
I1127 18:47:56.075549  3435 net.cpp:435] inception_4c/3x3_reduce <- inception_4b/output_inception_4b/output_0_split_1
I1127 18:47:56.075553  3435 net.cpp:409] inception_4c/3x3_reduce -> inception_4c/3x3_reduce
I1127 18:47:56.075996  3435 net.cpp:144] Setting up inception_4c/3x3_reduce
I1127 18:47:56.076001  3435 net.cpp:151] Top shape: 2 128 38 38 (369664)
I1127 18:47:56.076004  3435 net.cpp:159] Memory required for data: 639358464
I1127 18:47:56.076007  3435 layer_factory.hpp:77] Creating layer inception_4c/relu_3x3_reduce
I1127 18:47:56.076011  3435 net.cpp:94] Creating Layer inception_4c/relu_3x3_reduce
I1127 18:47:56.076014  3435 net.cpp:435] inception_4c/relu_3x3_reduce <- inception_4c/3x3_reduce
I1127 18:47:56.076017  3435 net.cpp:396] inception_4c/relu_3x3_reduce -> inception_4c/3x3_reduce (in-place)
I1127 18:47:56.076027  3435 net.cpp:144] Setting up inception_4c/relu_3x3_reduce
I1127 18:47:56.076030  3435 net.cpp:151] Top shape: 2 128 38 38 (369664)
I1127 18:47:56.076033  3435 net.cpp:159] Memory required for data: 640837120
I1127 18:47:56.076035  3435 layer_factory.hpp:77] Creating layer inception_4c/3x3
I1127 18:47:56.076040  3435 net.cpp:94] Creating Layer inception_4c/3x3
I1127 18:47:56.076043  3435 net.cpp:435] inception_4c/3x3 <- inception_4c/3x3_reduce
I1127 18:47:56.076047  3435 net.cpp:409] inception_4c/3x3 -> inception_4c/3x3
I1127 18:47:56.077932  3435 net.cpp:144] Setting up inception_4c/3x3
I1127 18:47:56.077940  3435 net.cpp:151] Top shape: 2 256 38 38 (739328)
I1127 18:47:56.077944  3435 net.cpp:159] Memory required for data: 643794432
I1127 18:47:56.077947  3435 layer_factory.hpp:77] Creating layer inception_4c/relu_3x3
I1127 18:47:56.077951  3435 net.cpp:94] Creating Layer inception_4c/relu_3x3
I1127 18:47:56.077955  3435 net.cpp:435] inception_4c/relu_3x3 <- inception_4c/3x3
I1127 18:47:56.077958  3435 net.cpp:396] inception_4c/relu_3x3 -> inception_4c/3x3 (in-place)
I1127 18:47:56.077963  3435 net.cpp:144] Setting up inception_4c/relu_3x3
I1127 18:47:56.077966  3435 net.cpp:151] Top shape: 2 256 38 38 (739328)
I1127 18:47:56.077968  3435 net.cpp:159] Memory required for data: 646751744
I1127 18:47:56.077971  3435 layer_factory.hpp:77] Creating layer inception_4c/5x5_reduce
I1127 18:47:56.077976  3435 net.cpp:94] Creating Layer inception_4c/5x5_reduce
I1127 18:47:56.077978  3435 net.cpp:435] inception_4c/5x5_reduce <- inception_4b/output_inception_4b/output_0_split_2
I1127 18:47:56.077982  3435 net.cpp:409] inception_4c/5x5_reduce -> inception_4c/5x5_reduce
I1127 18:47:56.078188  3435 net.cpp:144] Setting up inception_4c/5x5_reduce
I1127 18:47:56.078193  3435 net.cpp:151] Top shape: 2 24 38 38 (69312)
I1127 18:47:56.078196  3435 net.cpp:159] Memory required for data: 647028992
I1127 18:47:56.078199  3435 layer_factory.hpp:77] Creating layer inception_4c/relu_5x5_reduce
I1127 18:47:56.078203  3435 net.cpp:94] Creating Layer inception_4c/relu_5x5_reduce
I1127 18:47:56.078207  3435 net.cpp:435] inception_4c/relu_5x5_reduce <- inception_4c/5x5_reduce
I1127 18:47:56.078209  3435 net.cpp:396] inception_4c/relu_5x5_reduce -> inception_4c/5x5_reduce (in-place)
I1127 18:47:56.078213  3435 net.cpp:144] Setting up inception_4c/relu_5x5_reduce
I1127 18:47:56.078217  3435 net.cpp:151] Top shape: 2 24 38 38 (69312)
I1127 18:47:56.078219  3435 net.cpp:159] Memory required for data: 647306240
I1127 18:47:56.078222  3435 layer_factory.hpp:77] Creating layer inception_4c/5x5
I1127 18:47:56.078227  3435 net.cpp:94] Creating Layer inception_4c/5x5
I1127 18:47:56.078228  3435 net.cpp:435] inception_4c/5x5 <- inception_4c/5x5_reduce
I1127 18:47:56.078233  3435 net.cpp:409] inception_4c/5x5 -> inception_4c/5x5
I1127 18:47:56.078891  3435 net.cpp:144] Setting up inception_4c/5x5
I1127 18:47:56.078899  3435 net.cpp:151] Top shape: 2 64 38 38 (184832)
I1127 18:47:56.078902  3435 net.cpp:159] Memory required for data: 648045568
I1127 18:47:56.078907  3435 layer_factory.hpp:77] Creating layer inception_4c/relu_5x5
I1127 18:47:56.078910  3435 net.cpp:94] Creating Layer inception_4c/relu_5x5
I1127 18:47:56.078913  3435 net.cpp:435] inception_4c/relu_5x5 <- inception_4c/5x5
I1127 18:47:56.078917  3435 net.cpp:396] inception_4c/relu_5x5 -> inception_4c/5x5 (in-place)
I1127 18:47:56.078922  3435 net.cpp:144] Setting up inception_4c/relu_5x5
I1127 18:47:56.078925  3435 net.cpp:151] Top shape: 2 64 38 38 (184832)
I1127 18:47:56.078927  3435 net.cpp:159] Memory required for data: 648784896
I1127 18:47:56.078929  3435 layer_factory.hpp:77] Creating layer inception_4c/pool
I1127 18:47:56.078933  3435 net.cpp:94] Creating Layer inception_4c/pool
I1127 18:47:56.078935  3435 net.cpp:435] inception_4c/pool <- inception_4b/output_inception_4b/output_0_split_3
I1127 18:47:56.078939  3435 net.cpp:409] inception_4c/pool -> inception_4c/pool
I1127 18:47:56.078963  3435 net.cpp:144] Setting up inception_4c/pool
I1127 18:47:56.078968  3435 net.cpp:151] Top shape: 2 512 38 38 (1478656)
I1127 18:47:56.078976  3435 net.cpp:159] Memory required for data: 654699520
I1127 18:47:56.078979  3435 layer_factory.hpp:77] Creating layer inception_4c/pool_proj
I1127 18:47:56.078984  3435 net.cpp:94] Creating Layer inception_4c/pool_proj
I1127 18:47:56.078987  3435 net.cpp:435] inception_4c/pool_proj <- inception_4c/pool
I1127 18:47:56.078991  3435 net.cpp:409] inception_4c/pool_proj -> inception_4c/pool_proj
I1127 18:47:56.079282  3435 net.cpp:144] Setting up inception_4c/pool_proj
I1127 18:47:56.079287  3435 net.cpp:151] Top shape: 2 64 38 38 (184832)
I1127 18:47:56.079289  3435 net.cpp:159] Memory required for data: 655438848
I1127 18:47:56.079299  3435 layer_factory.hpp:77] Creating layer inception_4c/relu_pool_proj
I1127 18:47:56.079303  3435 net.cpp:94] Creating Layer inception_4c/relu_pool_proj
I1127 18:47:56.079305  3435 net.cpp:435] inception_4c/relu_pool_proj <- inception_4c/pool_proj
I1127 18:47:56.079309  3435 net.cpp:396] inception_4c/relu_pool_proj -> inception_4c/pool_proj (in-place)
I1127 18:47:56.079314  3435 net.cpp:144] Setting up inception_4c/relu_pool_proj
I1127 18:47:56.079318  3435 net.cpp:151] Top shape: 2 64 38 38 (184832)
I1127 18:47:56.079319  3435 net.cpp:159] Memory required for data: 656178176
I1127 18:47:56.079321  3435 layer_factory.hpp:77] Creating layer inception_4c/output
I1127 18:47:56.079325  3435 net.cpp:94] Creating Layer inception_4c/output
I1127 18:47:56.079329  3435 net.cpp:435] inception_4c/output <- inception_4c/1x1
I1127 18:47:56.079331  3435 net.cpp:435] inception_4c/output <- inception_4c/3x3
I1127 18:47:56.079334  3435 net.cpp:435] inception_4c/output <- inception_4c/5x5
I1127 18:47:56.079337  3435 net.cpp:435] inception_4c/output <- inception_4c/pool_proj
I1127 18:47:56.079340  3435 net.cpp:409] inception_4c/output -> inception_4c/output
I1127 18:47:56.079355  3435 net.cpp:144] Setting up inception_4c/output
I1127 18:47:56.079358  3435 net.cpp:151] Top shape: 2 512 38 38 (1478656)
I1127 18:47:56.079360  3435 net.cpp:159] Memory required for data: 662092800
I1127 18:47:56.079363  3435 layer_factory.hpp:77] Creating layer inception_4c/output_inception_4c/output_0_split
I1127 18:47:56.079367  3435 net.cpp:94] Creating Layer inception_4c/output_inception_4c/output_0_split
I1127 18:47:56.079370  3435 net.cpp:435] inception_4c/output_inception_4c/output_0_split <- inception_4c/output
I1127 18:47:56.079373  3435 net.cpp:409] inception_4c/output_inception_4c/output_0_split -> inception_4c/output_inception_4c/output_0_split_0
I1127 18:47:56.079377  3435 net.cpp:409] inception_4c/output_inception_4c/output_0_split -> inception_4c/output_inception_4c/output_0_split_1
I1127 18:47:56.079381  3435 net.cpp:409] inception_4c/output_inception_4c/output_0_split -> inception_4c/output_inception_4c/output_0_split_2
I1127 18:47:56.079386  3435 net.cpp:409] inception_4c/output_inception_4c/output_0_split -> inception_4c/output_inception_4c/output_0_split_3
I1127 18:47:56.079421  3435 net.cpp:144] Setting up inception_4c/output_inception_4c/output_0_split
I1127 18:47:56.079424  3435 net.cpp:151] Top shape: 2 512 38 38 (1478656)
I1127 18:47:56.079427  3435 net.cpp:151] Top shape: 2 512 38 38 (1478656)
I1127 18:47:56.079430  3435 net.cpp:151] Top shape: 2 512 38 38 (1478656)
I1127 18:47:56.079433  3435 net.cpp:151] Top shape: 2 512 38 38 (1478656)
I1127 18:47:56.079435  3435 net.cpp:159] Memory required for data: 685751296
I1127 18:47:56.079437  3435 layer_factory.hpp:77] Creating layer inception_4d/1x1
I1127 18:47:56.079443  3435 net.cpp:94] Creating Layer inception_4d/1x1
I1127 18:47:56.079445  3435 net.cpp:435] inception_4d/1x1 <- inception_4c/output_inception_4c/output_0_split_0
I1127 18:47:56.079450  3435 net.cpp:409] inception_4d/1x1 -> inception_4d/1x1
I1127 18:47:56.079845  3435 net.cpp:144] Setting up inception_4d/1x1
I1127 18:47:56.079850  3435 net.cpp:151] Top shape: 2 112 38 38 (323456)
I1127 18:47:56.079852  3435 net.cpp:159] Memory required for data: 687045120
I1127 18:47:56.079856  3435 layer_factory.hpp:77] Creating layer inception_4d/relu_1x1
I1127 18:47:56.079865  3435 net.cpp:94] Creating Layer inception_4d/relu_1x1
I1127 18:47:56.079869  3435 net.cpp:435] inception_4d/relu_1x1 <- inception_4d/1x1
I1127 18:47:56.079872  3435 net.cpp:396] inception_4d/relu_1x1 -> inception_4d/1x1 (in-place)
I1127 18:47:56.079876  3435 net.cpp:144] Setting up inception_4d/relu_1x1
I1127 18:47:56.079880  3435 net.cpp:151] Top shape: 2 112 38 38 (323456)
I1127 18:47:56.079882  3435 net.cpp:159] Memory required for data: 688338944
I1127 18:47:56.079885  3435 layer_factory.hpp:77] Creating layer inception_4d/3x3_reduce
I1127 18:47:56.079890  3435 net.cpp:94] Creating Layer inception_4d/3x3_reduce
I1127 18:47:56.079892  3435 net.cpp:435] inception_4d/3x3_reduce <- inception_4c/output_inception_4c/output_0_split_1
I1127 18:47:56.079896  3435 net.cpp:409] inception_4d/3x3_reduce -> inception_4d/3x3_reduce
I1127 18:47:56.080423  3435 net.cpp:144] Setting up inception_4d/3x3_reduce
I1127 18:47:56.080430  3435 net.cpp:151] Top shape: 2 144 38 38 (415872)
I1127 18:47:56.080431  3435 net.cpp:159] Memory required for data: 690002432
I1127 18:47:56.080435  3435 layer_factory.hpp:77] Creating layer inception_4d/relu_3x3_reduce
I1127 18:47:56.080438  3435 net.cpp:94] Creating Layer inception_4d/relu_3x3_reduce
I1127 18:47:56.080441  3435 net.cpp:435] inception_4d/relu_3x3_reduce <- inception_4d/3x3_reduce
I1127 18:47:56.080446  3435 net.cpp:396] inception_4d/relu_3x3_reduce -> inception_4d/3x3_reduce (in-place)
I1127 18:47:56.080449  3435 net.cpp:144] Setting up inception_4d/relu_3x3_reduce
I1127 18:47:56.080452  3435 net.cpp:151] Top shape: 2 144 38 38 (415872)
I1127 18:47:56.080454  3435 net.cpp:159] Memory required for data: 691665920
I1127 18:47:56.080457  3435 layer_factory.hpp:77] Creating layer inception_4d/3x3
I1127 18:47:56.080462  3435 net.cpp:94] Creating Layer inception_4d/3x3
I1127 18:47:56.080464  3435 net.cpp:435] inception_4d/3x3 <- inception_4d/3x3_reduce
I1127 18:47:56.080468  3435 net.cpp:409] inception_4d/3x3 -> inception_4d/3x3
I1127 18:47:56.083181  3435 net.cpp:144] Setting up inception_4d/3x3
I1127 18:47:56.083191  3435 net.cpp:151] Top shape: 2 288 38 38 (831744)
I1127 18:47:56.083194  3435 net.cpp:159] Memory required for data: 694992896
I1127 18:47:56.083199  3435 layer_factory.hpp:77] Creating layer inception_4d/relu_3x3
I1127 18:47:56.083204  3435 net.cpp:94] Creating Layer inception_4d/relu_3x3
I1127 18:47:56.083207  3435 net.cpp:435] inception_4d/relu_3x3 <- inception_4d/3x3
I1127 18:47:56.083211  3435 net.cpp:396] inception_4d/relu_3x3 -> inception_4d/3x3 (in-place)
I1127 18:47:56.083217  3435 net.cpp:144] Setting up inception_4d/relu_3x3
I1127 18:47:56.083220  3435 net.cpp:151] Top shape: 2 288 38 38 (831744)
I1127 18:47:56.083222  3435 net.cpp:159] Memory required for data: 698319872
I1127 18:47:56.083225  3435 layer_factory.hpp:77] Creating layer inception_4d/5x5_reduce
I1127 18:47:56.083230  3435 net.cpp:94] Creating Layer inception_4d/5x5_reduce
I1127 18:47:56.083233  3435 net.cpp:435] inception_4d/5x5_reduce <- inception_4c/output_inception_4c/output_0_split_2
I1127 18:47:56.083237  3435 net.cpp:409] inception_4d/5x5_reduce -> inception_4d/5x5_reduce
I1127 18:47:56.083478  3435 net.cpp:144] Setting up inception_4d/5x5_reduce
I1127 18:47:56.083484  3435 net.cpp:151] Top shape: 2 32 38 38 (92416)
I1127 18:47:56.083487  3435 net.cpp:159] Memory required for data: 698689536
I1127 18:47:56.083490  3435 layer_factory.hpp:77] Creating layer inception_4d/relu_5x5_reduce
I1127 18:47:56.083494  3435 net.cpp:94] Creating Layer inception_4d/relu_5x5_reduce
I1127 18:47:56.083497  3435 net.cpp:435] inception_4d/relu_5x5_reduce <- inception_4d/5x5_reduce
I1127 18:47:56.083500  3435 net.cpp:396] inception_4d/relu_5x5_reduce -> inception_4d/5x5_reduce (in-place)
I1127 18:47:56.083505  3435 net.cpp:144] Setting up inception_4d/relu_5x5_reduce
I1127 18:47:56.083508  3435 net.cpp:151] Top shape: 2 32 38 38 (92416)
I1127 18:47:56.083510  3435 net.cpp:159] Memory required for data: 699059200
I1127 18:47:56.083513  3435 layer_factory.hpp:77] Creating layer inception_4d/5x5
I1127 18:47:56.083525  3435 net.cpp:94] Creating Layer inception_4d/5x5
I1127 18:47:56.083528  3435 net.cpp:435] inception_4d/5x5 <- inception_4d/5x5_reduce
I1127 18:47:56.083533  3435 net.cpp:409] inception_4d/5x5 -> inception_4d/5x5
I1127 18:47:56.083922  3435 net.cpp:144] Setting up inception_4d/5x5
I1127 18:47:56.083928  3435 net.cpp:151] Top shape: 2 64 38 38 (184832)
I1127 18:47:56.083930  3435 net.cpp:159] Memory required for data: 699798528
I1127 18:47:56.083935  3435 layer_factory.hpp:77] Creating layer inception_4d/relu_5x5
I1127 18:47:56.083938  3435 net.cpp:94] Creating Layer inception_4d/relu_5x5
I1127 18:47:56.083941  3435 net.cpp:435] inception_4d/relu_5x5 <- inception_4d/5x5
I1127 18:47:56.083945  3435 net.cpp:396] inception_4d/relu_5x5 -> inception_4d/5x5 (in-place)
I1127 18:47:56.083950  3435 net.cpp:144] Setting up inception_4d/relu_5x5
I1127 18:47:56.083952  3435 net.cpp:151] Top shape: 2 64 38 38 (184832)
I1127 18:47:56.083955  3435 net.cpp:159] Memory required for data: 700537856
I1127 18:47:56.083956  3435 layer_factory.hpp:77] Creating layer inception_4d/pool
I1127 18:47:56.083961  3435 net.cpp:94] Creating Layer inception_4d/pool
I1127 18:47:56.083963  3435 net.cpp:435] inception_4d/pool <- inception_4c/output_inception_4c/output_0_split_3
I1127 18:47:56.083967  3435 net.cpp:409] inception_4d/pool -> inception_4d/pool
I1127 18:47:56.083992  3435 net.cpp:144] Setting up inception_4d/pool
I1127 18:47:56.083995  3435 net.cpp:151] Top shape: 2 512 38 38 (1478656)
I1127 18:47:56.083997  3435 net.cpp:159] Memory required for data: 706452480
I1127 18:47:56.083999  3435 layer_factory.hpp:77] Creating layer inception_4d/pool_proj
I1127 18:47:56.084004  3435 net.cpp:94] Creating Layer inception_4d/pool_proj
I1127 18:47:56.084007  3435 net.cpp:435] inception_4d/pool_proj <- inception_4d/pool
I1127 18:47:56.084012  3435 net.cpp:409] inception_4d/pool_proj -> inception_4d/pool_proj
I1127 18:47:56.084362  3435 net.cpp:144] Setting up inception_4d/pool_proj
I1127 18:47:56.084368  3435 net.cpp:151] Top shape: 2 64 38 38 (184832)
I1127 18:47:56.084370  3435 net.cpp:159] Memory required for data: 707191808
I1127 18:47:56.084375  3435 layer_factory.hpp:77] Creating layer inception_4d/relu_pool_proj
I1127 18:47:56.084378  3435 net.cpp:94] Creating Layer inception_4d/relu_pool_proj
I1127 18:47:56.084383  3435 net.cpp:435] inception_4d/relu_pool_proj <- inception_4d/pool_proj
I1127 18:47:56.084385  3435 net.cpp:396] inception_4d/relu_pool_proj -> inception_4d/pool_proj (in-place)
I1127 18:47:56.084389  3435 net.cpp:144] Setting up inception_4d/relu_pool_proj
I1127 18:47:56.084393  3435 net.cpp:151] Top shape: 2 64 38 38 (184832)
I1127 18:47:56.084395  3435 net.cpp:159] Memory required for data: 707931136
I1127 18:47:56.084398  3435 layer_factory.hpp:77] Creating layer inception_4d/output
I1127 18:47:56.084403  3435 net.cpp:94] Creating Layer inception_4d/output
I1127 18:47:56.084406  3435 net.cpp:435] inception_4d/output <- inception_4d/1x1
I1127 18:47:56.084409  3435 net.cpp:435] inception_4d/output <- inception_4d/3x3
I1127 18:47:56.084413  3435 net.cpp:435] inception_4d/output <- inception_4d/5x5
I1127 18:47:56.084415  3435 net.cpp:435] inception_4d/output <- inception_4d/pool_proj
I1127 18:47:56.084419  3435 net.cpp:409] inception_4d/output -> inception_4d/output
I1127 18:47:56.084434  3435 net.cpp:144] Setting up inception_4d/output
I1127 18:47:56.084439  3435 net.cpp:151] Top shape: 2 528 38 38 (1524864)
I1127 18:47:56.084440  3435 net.cpp:159] Memory required for data: 714030592
I1127 18:47:56.084442  3435 layer_factory.hpp:77] Creating layer inception_4d/output_inception_4d/output_0_split
I1127 18:47:56.084446  3435 net.cpp:94] Creating Layer inception_4d/output_inception_4d/output_0_split
I1127 18:47:56.084450  3435 net.cpp:435] inception_4d/output_inception_4d/output_0_split <- inception_4d/output
I1127 18:47:56.084455  3435 net.cpp:409] inception_4d/output_inception_4d/output_0_split -> inception_4d/output_inception_4d/output_0_split_0
I1127 18:47:56.084460  3435 net.cpp:409] inception_4d/output_inception_4d/output_0_split -> inception_4d/output_inception_4d/output_0_split_1
I1127 18:47:56.084470  3435 net.cpp:409] inception_4d/output_inception_4d/output_0_split -> inception_4d/output_inception_4d/output_0_split_2
I1127 18:47:56.084475  3435 net.cpp:409] inception_4d/output_inception_4d/output_0_split -> inception_4d/output_inception_4d/output_0_split_3
I1127 18:47:56.084511  3435 net.cpp:144] Setting up inception_4d/output_inception_4d/output_0_split
I1127 18:47:56.084516  3435 net.cpp:151] Top shape: 2 528 38 38 (1524864)
I1127 18:47:56.084518  3435 net.cpp:151] Top shape: 2 528 38 38 (1524864)
I1127 18:47:56.084522  3435 net.cpp:151] Top shape: 2 528 38 38 (1524864)
I1127 18:47:56.084524  3435 net.cpp:151] Top shape: 2 528 38 38 (1524864)
I1127 18:47:56.084527  3435 net.cpp:159] Memory required for data: 738428416
I1127 18:47:56.084528  3435 layer_factory.hpp:77] Creating layer inception_4e/1x1
I1127 18:47:56.084534  3435 net.cpp:94] Creating Layer inception_4e/1x1
I1127 18:47:56.084537  3435 net.cpp:435] inception_4e/1x1 <- inception_4d/output_inception_4d/output_0_split_0
I1127 18:47:56.084542  3435 net.cpp:409] inception_4e/1x1 -> inception_4e/1x1
I1127 18:47:56.085683  3435 net.cpp:144] Setting up inception_4e/1x1
I1127 18:47:56.085692  3435 net.cpp:151] Top shape: 2 256 38 38 (739328)
I1127 18:47:56.085695  3435 net.cpp:159] Memory required for data: 741385728
I1127 18:47:56.085700  3435 layer_factory.hpp:77] Creating layer inception_4e/relu_1x1
I1127 18:47:56.085703  3435 net.cpp:94] Creating Layer inception_4e/relu_1x1
I1127 18:47:56.085706  3435 net.cpp:435] inception_4e/relu_1x1 <- inception_4e/1x1
I1127 18:47:56.085711  3435 net.cpp:396] inception_4e/relu_1x1 -> inception_4e/1x1 (in-place)
I1127 18:47:56.085716  3435 net.cpp:144] Setting up inception_4e/relu_1x1
I1127 18:47:56.085718  3435 net.cpp:151] Top shape: 2 256 38 38 (739328)
I1127 18:47:56.085721  3435 net.cpp:159] Memory required for data: 744343040
I1127 18:47:56.085723  3435 layer_factory.hpp:77] Creating layer inception_4e/3x3_reduce
I1127 18:47:56.085729  3435 net.cpp:94] Creating Layer inception_4e/3x3_reduce
I1127 18:47:56.085732  3435 net.cpp:435] inception_4e/3x3_reduce <- inception_4d/output_inception_4d/output_0_split_1
I1127 18:47:56.085736  3435 net.cpp:409] inception_4e/3x3_reduce -> inception_4e/3x3_reduce
I1127 18:47:56.086261  3435 net.cpp:144] Setting up inception_4e/3x3_reduce
I1127 18:47:56.086266  3435 net.cpp:151] Top shape: 2 160 38 38 (462080)
I1127 18:47:56.086269  3435 net.cpp:159] Memory required for data: 746191360
I1127 18:47:56.086273  3435 layer_factory.hpp:77] Creating layer inception_4e/relu_3x3_reduce
I1127 18:47:56.086277  3435 net.cpp:94] Creating Layer inception_4e/relu_3x3_reduce
I1127 18:47:56.086279  3435 net.cpp:435] inception_4e/relu_3x3_reduce <- inception_4e/3x3_reduce
I1127 18:47:56.086283  3435 net.cpp:396] inception_4e/relu_3x3_reduce -> inception_4e/3x3_reduce (in-place)
I1127 18:47:56.086288  3435 net.cpp:144] Setting up inception_4e/relu_3x3_reduce
I1127 18:47:56.086292  3435 net.cpp:151] Top shape: 2 160 38 38 (462080)
I1127 18:47:56.086293  3435 net.cpp:159] Memory required for data: 748039680
I1127 18:47:56.086295  3435 layer_factory.hpp:77] Creating layer inception_4e/3x3
I1127 18:47:56.086302  3435 net.cpp:94] Creating Layer inception_4e/3x3
I1127 18:47:56.086303  3435 net.cpp:435] inception_4e/3x3 <- inception_4e/3x3_reduce
I1127 18:47:56.086308  3435 net.cpp:409] inception_4e/3x3 -> inception_4e/3x3
I1127 18:47:56.088973  3435 net.cpp:144] Setting up inception_4e/3x3
I1127 18:47:56.088980  3435 net.cpp:151] Top shape: 2 320 38 38 (924160)
I1127 18:47:56.088984  3435 net.cpp:159] Memory required for data: 751736320
I1127 18:47:56.088987  3435 layer_factory.hpp:77] Creating layer inception_4e/relu_3x3
I1127 18:47:56.088991  3435 net.cpp:94] Creating Layer inception_4e/relu_3x3
I1127 18:47:56.088994  3435 net.cpp:435] inception_4e/relu_3x3 <- inception_4e/3x3
I1127 18:47:56.088999  3435 net.cpp:396] inception_4e/relu_3x3 -> inception_4e/3x3 (in-place)
I1127 18:47:56.089002  3435 net.cpp:144] Setting up inception_4e/relu_3x3
I1127 18:47:56.089013  3435 net.cpp:151] Top shape: 2 320 38 38 (924160)
I1127 18:47:56.089015  3435 net.cpp:159] Memory required for data: 755432960
I1127 18:47:56.089018  3435 layer_factory.hpp:77] Creating layer inception_4e/5x5_reduce
I1127 18:47:56.089025  3435 net.cpp:94] Creating Layer inception_4e/5x5_reduce
I1127 18:47:56.089027  3435 net.cpp:435] inception_4e/5x5_reduce <- inception_4d/output_inception_4d/output_0_split_2
I1127 18:47:56.089031  3435 net.cpp:409] inception_4e/5x5_reduce -> inception_4e/5x5_reduce
I1127 18:47:56.089275  3435 net.cpp:144] Setting up inception_4e/5x5_reduce
I1127 18:47:56.089282  3435 net.cpp:151] Top shape: 2 32 38 38 (92416)
I1127 18:47:56.089283  3435 net.cpp:159] Memory required for data: 755802624
I1127 18:47:56.089287  3435 layer_factory.hpp:77] Creating layer inception_4e/relu_5x5_reduce
I1127 18:47:56.089292  3435 net.cpp:94] Creating Layer inception_4e/relu_5x5_reduce
I1127 18:47:56.089294  3435 net.cpp:435] inception_4e/relu_5x5_reduce <- inception_4e/5x5_reduce
I1127 18:47:56.089298  3435 net.cpp:396] inception_4e/relu_5x5_reduce -> inception_4e/5x5_reduce (in-place)
I1127 18:47:56.089303  3435 net.cpp:144] Setting up inception_4e/relu_5x5_reduce
I1127 18:47:56.089305  3435 net.cpp:151] Top shape: 2 32 38 38 (92416)
I1127 18:47:56.089308  3435 net.cpp:159] Memory required for data: 756172288
I1127 18:47:56.089309  3435 layer_factory.hpp:77] Creating layer inception_4e/5x5
I1127 18:47:56.089315  3435 net.cpp:94] Creating Layer inception_4e/5x5
I1127 18:47:56.089318  3435 net.cpp:435] inception_4e/5x5 <- inception_4e/5x5_reduce
I1127 18:47:56.089321  3435 net.cpp:409] inception_4e/5x5 -> inception_4e/5x5
I1127 18:47:56.090268  3435 net.cpp:144] Setting up inception_4e/5x5
I1127 18:47:56.090276  3435 net.cpp:151] Top shape: 2 128 38 38 (369664)
I1127 18:47:56.090279  3435 net.cpp:159] Memory required for data: 757650944
I1127 18:47:56.090284  3435 layer_factory.hpp:77] Creating layer inception_4e/relu_5x5
I1127 18:47:56.090287  3435 net.cpp:94] Creating Layer inception_4e/relu_5x5
I1127 18:47:56.090291  3435 net.cpp:435] inception_4e/relu_5x5 <- inception_4e/5x5
I1127 18:47:56.090294  3435 net.cpp:396] inception_4e/relu_5x5 -> inception_4e/5x5 (in-place)
I1127 18:47:56.090301  3435 net.cpp:144] Setting up inception_4e/relu_5x5
I1127 18:47:56.090303  3435 net.cpp:151] Top shape: 2 128 38 38 (369664)
I1127 18:47:56.090306  3435 net.cpp:159] Memory required for data: 759129600
I1127 18:47:56.090307  3435 layer_factory.hpp:77] Creating layer inception_4e/pool
I1127 18:47:56.090312  3435 net.cpp:94] Creating Layer inception_4e/pool
I1127 18:47:56.090314  3435 net.cpp:435] inception_4e/pool <- inception_4d/output_inception_4d/output_0_split_3
I1127 18:47:56.090318  3435 net.cpp:409] inception_4e/pool -> inception_4e/pool
I1127 18:47:56.090345  3435 net.cpp:144] Setting up inception_4e/pool
I1127 18:47:56.090349  3435 net.cpp:151] Top shape: 2 528 38 38 (1524864)
I1127 18:47:56.090351  3435 net.cpp:159] Memory required for data: 765229056
I1127 18:47:56.090353  3435 layer_factory.hpp:77] Creating layer inception_4e/pool_proj
I1127 18:47:56.090359  3435 net.cpp:94] Creating Layer inception_4e/pool_proj
I1127 18:47:56.090363  3435 net.cpp:435] inception_4e/pool_proj <- inception_4e/pool
I1127 18:47:56.090368  3435 net.cpp:409] inception_4e/pool_proj -> inception_4e/pool_proj
I1127 18:47:56.090813  3435 net.cpp:144] Setting up inception_4e/pool_proj
I1127 18:47:56.090819  3435 net.cpp:151] Top shape: 2 128 38 38 (369664)
I1127 18:47:56.090821  3435 net.cpp:159] Memory required for data: 766707712
I1127 18:47:56.090826  3435 layer_factory.hpp:77] Creating layer inception_4e/relu_pool_proj
I1127 18:47:56.090839  3435 net.cpp:94] Creating Layer inception_4e/relu_pool_proj
I1127 18:47:56.090843  3435 net.cpp:435] inception_4e/relu_pool_proj <- inception_4e/pool_proj
I1127 18:47:56.090847  3435 net.cpp:396] inception_4e/relu_pool_proj -> inception_4e/pool_proj (in-place)
I1127 18:47:56.090852  3435 net.cpp:144] Setting up inception_4e/relu_pool_proj
I1127 18:47:56.090862  3435 net.cpp:151] Top shape: 2 128 38 38 (369664)
I1127 18:47:56.090864  3435 net.cpp:159] Memory required for data: 768186368
I1127 18:47:56.090867  3435 layer_factory.hpp:77] Creating layer inception_4e/output
I1127 18:47:56.090870  3435 net.cpp:94] Creating Layer inception_4e/output
I1127 18:47:56.090873  3435 net.cpp:435] inception_4e/output <- inception_4e/1x1
I1127 18:47:56.090876  3435 net.cpp:435] inception_4e/output <- inception_4e/3x3
I1127 18:47:56.090879  3435 net.cpp:435] inception_4e/output <- inception_4e/5x5
I1127 18:47:56.090883  3435 net.cpp:435] inception_4e/output <- inception_4e/pool_proj
I1127 18:47:56.090885  3435 net.cpp:409] inception_4e/output -> inception_4e/output
I1127 18:47:56.090903  3435 net.cpp:144] Setting up inception_4e/output
I1127 18:47:56.090906  3435 net.cpp:151] Top shape: 2 832 38 38 (2402816)
I1127 18:47:56.090909  3435 net.cpp:159] Memory required for data: 777797632
I1127 18:47:56.090911  3435 layer_factory.hpp:77] Creating layer inception_4e/output_inception_4e/output_0_split
I1127 18:47:56.090915  3435 net.cpp:94] Creating Layer inception_4e/output_inception_4e/output_0_split
I1127 18:47:56.090919  3435 net.cpp:435] inception_4e/output_inception_4e/output_0_split <- inception_4e/output
I1127 18:47:56.090922  3435 net.cpp:409] inception_4e/output_inception_4e/output_0_split -> inception_4e/output_inception_4e/output_0_split_0
I1127 18:47:56.090927  3435 net.cpp:409] inception_4e/output_inception_4e/output_0_split -> inception_4e/output_inception_4e/output_0_split_1
I1127 18:47:56.090931  3435 net.cpp:409] inception_4e/output_inception_4e/output_0_split -> inception_4e/output_inception_4e/output_0_split_2
I1127 18:47:56.090935  3435 net.cpp:409] inception_4e/output_inception_4e/output_0_split -> inception_4e/output_inception_4e/output_0_split_3
I1127 18:47:56.090975  3435 net.cpp:144] Setting up inception_4e/output_inception_4e/output_0_split
I1127 18:47:56.090977  3435 net.cpp:151] Top shape: 2 832 38 38 (2402816)
I1127 18:47:56.090981  3435 net.cpp:151] Top shape: 2 832 38 38 (2402816)
I1127 18:47:56.090983  3435 net.cpp:151] Top shape: 2 832 38 38 (2402816)
I1127 18:47:56.090986  3435 net.cpp:151] Top shape: 2 832 38 38 (2402816)
I1127 18:47:56.090988  3435 net.cpp:159] Memory required for data: 816242688
I1127 18:47:56.090991  3435 layer_factory.hpp:77] Creating layer inception_5a/1x1
I1127 18:47:56.090996  3435 net.cpp:94] Creating Layer inception_5a/1x1
I1127 18:47:56.090999  3435 net.cpp:435] inception_5a/1x1 <- inception_4e/output_inception_4e/output_0_split_0
I1127 18:47:56.091004  3435 net.cpp:409] inception_5a/1x1 -> inception_5a/1x1
I1127 18:47:56.092478  3435 net.cpp:144] Setting up inception_5a/1x1
I1127 18:47:56.092486  3435 net.cpp:151] Top shape: 2 256 38 38 (739328)
I1127 18:47:56.092489  3435 net.cpp:159] Memory required for data: 819200000
I1127 18:47:56.092494  3435 layer_factory.hpp:77] Creating layer inception_5a/relu_1x1
I1127 18:47:56.092497  3435 net.cpp:94] Creating Layer inception_5a/relu_1x1
I1127 18:47:56.092500  3435 net.cpp:435] inception_5a/relu_1x1 <- inception_5a/1x1
I1127 18:47:56.092505  3435 net.cpp:396] inception_5a/relu_1x1 -> inception_5a/1x1 (in-place)
I1127 18:47:56.092510  3435 net.cpp:144] Setting up inception_5a/relu_1x1
I1127 18:47:56.092514  3435 net.cpp:151] Top shape: 2 256 38 38 (739328)
I1127 18:47:56.092515  3435 net.cpp:159] Memory required for data: 822157312
I1127 18:47:56.092519  3435 layer_factory.hpp:77] Creating layer inception_5a/3x3_reduce
I1127 18:47:56.092524  3435 net.cpp:94] Creating Layer inception_5a/3x3_reduce
I1127 18:47:56.092526  3435 net.cpp:435] inception_5a/3x3_reduce <- inception_4e/output_inception_4e/output_0_split_1
I1127 18:47:56.092530  3435 net.cpp:409] inception_5a/3x3_reduce -> inception_5a/3x3_reduce
I1127 18:47:56.093614  3435 net.cpp:144] Setting up inception_5a/3x3_reduce
I1127 18:47:56.093621  3435 net.cpp:151] Top shape: 2 160 38 38 (462080)
I1127 18:47:56.093624  3435 net.cpp:159] Memory required for data: 824005632
I1127 18:47:56.093628  3435 layer_factory.hpp:77] Creating layer inception_5a/relu_3x3_reduce
I1127 18:47:56.093638  3435 net.cpp:94] Creating Layer inception_5a/relu_3x3_reduce
I1127 18:47:56.093642  3435 net.cpp:435] inception_5a/relu_3x3_reduce <- inception_5a/3x3_reduce
I1127 18:47:56.093647  3435 net.cpp:396] inception_5a/relu_3x3_reduce -> inception_5a/3x3_reduce (in-place)
I1127 18:47:56.093652  3435 net.cpp:144] Setting up inception_5a/relu_3x3_reduce
I1127 18:47:56.093655  3435 net.cpp:151] Top shape: 2 160 38 38 (462080)
I1127 18:47:56.093658  3435 net.cpp:159] Memory required for data: 825853952
I1127 18:47:56.093660  3435 layer_factory.hpp:77] Creating layer inception_5a/3x3
I1127 18:47:56.093667  3435 net.cpp:94] Creating Layer inception_5a/3x3
I1127 18:47:56.093668  3435 net.cpp:435] inception_5a/3x3 <- inception_5a/3x3_reduce
I1127 18:47:56.093673  3435 net.cpp:409] inception_5a/3x3 -> inception_5a/3x3
I1127 18:47:56.096392  3435 net.cpp:144] Setting up inception_5a/3x3
I1127 18:47:56.096401  3435 net.cpp:151] Top shape: 2 320 38 38 (924160)
I1127 18:47:56.096405  3435 net.cpp:159] Memory required for data: 829550592
I1127 18:47:56.096410  3435 layer_factory.hpp:77] Creating layer inception_5a/relu_3x3
I1127 18:47:56.096413  3435 net.cpp:94] Creating Layer inception_5a/relu_3x3
I1127 18:47:56.096417  3435 net.cpp:435] inception_5a/relu_3x3 <- inception_5a/3x3
I1127 18:47:56.096421  3435 net.cpp:396] inception_5a/relu_3x3 -> inception_5a/3x3 (in-place)
I1127 18:47:56.096426  3435 net.cpp:144] Setting up inception_5a/relu_3x3
I1127 18:47:56.096431  3435 net.cpp:151] Top shape: 2 320 38 38 (924160)
I1127 18:47:56.096432  3435 net.cpp:159] Memory required for data: 833247232
I1127 18:47:56.096434  3435 layer_factory.hpp:77] Creating layer inception_5a/5x5_reduce
I1127 18:47:56.096441  3435 net.cpp:94] Creating Layer inception_5a/5x5_reduce
I1127 18:47:56.096444  3435 net.cpp:435] inception_5a/5x5_reduce <- inception_4e/output_inception_4e/output_0_split_2
I1127 18:47:56.096448  3435 net.cpp:409] inception_5a/5x5_reduce -> inception_5a/5x5_reduce
I1127 18:47:56.096750  3435 net.cpp:144] Setting up inception_5a/5x5_reduce
I1127 18:47:56.096755  3435 net.cpp:151] Top shape: 2 32 38 38 (92416)
I1127 18:47:56.096757  3435 net.cpp:159] Memory required for data: 833616896
I1127 18:47:56.096762  3435 layer_factory.hpp:77] Creating layer inception_5a/relu_5x5_reduce
I1127 18:47:56.096765  3435 net.cpp:94] Creating Layer inception_5a/relu_5x5_reduce
I1127 18:47:56.096768  3435 net.cpp:435] inception_5a/relu_5x5_reduce <- inception_5a/5x5_reduce
I1127 18:47:56.096773  3435 net.cpp:396] inception_5a/relu_5x5_reduce -> inception_5a/5x5_reduce (in-place)
I1127 18:47:56.096778  3435 net.cpp:144] Setting up inception_5a/relu_5x5_reduce
I1127 18:47:56.096781  3435 net.cpp:151] Top shape: 2 32 38 38 (92416)
I1127 18:47:56.096783  3435 net.cpp:159] Memory required for data: 833986560
I1127 18:47:56.096786  3435 layer_factory.hpp:77] Creating layer inception_5a/5x5
I1127 18:47:56.096792  3435 net.cpp:94] Creating Layer inception_5a/5x5
I1127 18:47:56.096796  3435 net.cpp:435] inception_5a/5x5 <- inception_5a/5x5_reduce
I1127 18:47:56.096799  3435 net.cpp:409] inception_5a/5x5 -> inception_5a/5x5
I1127 18:47:56.097937  3435 net.cpp:144] Setting up inception_5a/5x5
I1127 18:47:56.097950  3435 net.cpp:151] Top shape: 2 128 38 38 (369664)
I1127 18:47:56.097970  3435 net.cpp:159] Memory required for data: 835465216
I1127 18:47:56.097975  3435 layer_factory.hpp:77] Creating layer inception_5a/relu_5x5
I1127 18:47:56.097998  3435 net.cpp:94] Creating Layer inception_5a/relu_5x5
I1127 18:47:56.098002  3435 net.cpp:435] inception_5a/relu_5x5 <- inception_5a/5x5
I1127 18:47:56.098006  3435 net.cpp:396] inception_5a/relu_5x5 -> inception_5a/5x5 (in-place)
I1127 18:47:56.098013  3435 net.cpp:144] Setting up inception_5a/relu_5x5
I1127 18:47:56.098017  3435 net.cpp:151] Top shape: 2 128 38 38 (369664)
I1127 18:47:56.098019  3435 net.cpp:159] Memory required for data: 836943872
I1127 18:47:56.098021  3435 layer_factory.hpp:77] Creating layer inception_5a/pool
I1127 18:47:56.098028  3435 net.cpp:94] Creating Layer inception_5a/pool
I1127 18:47:56.098057  3435 net.cpp:435] inception_5a/pool <- inception_4e/output_inception_4e/output_0_split_3
I1127 18:47:56.098063  3435 net.cpp:409] inception_5a/pool -> inception_5a/pool
I1127 18:47:56.098103  3435 net.cpp:144] Setting up inception_5a/pool
I1127 18:47:56.098121  3435 net.cpp:151] Top shape: 2 832 38 38 (2402816)
I1127 18:47:56.098124  3435 net.cpp:159] Memory required for data: 846555136
I1127 18:47:56.098142  3435 layer_factory.hpp:77] Creating layer inception_5a/pool_proj
I1127 18:47:56.098150  3435 net.cpp:94] Creating Layer inception_5a/pool_proj
I1127 18:47:56.098170  3435 net.cpp:435] inception_5a/pool_proj <- inception_5a/pool
I1127 18:47:56.098176  3435 net.cpp:409] inception_5a/pool_proj -> inception_5a/pool_proj
I1127 18:47:56.099267  3435 net.cpp:144] Setting up inception_5a/pool_proj
I1127 18:47:56.099277  3435 net.cpp:151] Top shape: 2 128 38 38 (369664)
I1127 18:47:56.099278  3435 net.cpp:159] Memory required for data: 848033792
I1127 18:47:56.099283  3435 layer_factory.hpp:77] Creating layer inception_5a/relu_pool_proj
I1127 18:47:56.099287  3435 net.cpp:94] Creating Layer inception_5a/relu_pool_proj
I1127 18:47:56.099292  3435 net.cpp:435] inception_5a/relu_pool_proj <- inception_5a/pool_proj
I1127 18:47:56.099297  3435 net.cpp:396] inception_5a/relu_pool_proj -> inception_5a/pool_proj (in-place)
I1127 18:47:56.099301  3435 net.cpp:144] Setting up inception_5a/relu_pool_proj
I1127 18:47:56.099304  3435 net.cpp:151] Top shape: 2 128 38 38 (369664)
I1127 18:47:56.099308  3435 net.cpp:159] Memory required for data: 849512448
I1127 18:47:56.099309  3435 layer_factory.hpp:77] Creating layer inception_5a/output
I1127 18:47:56.099313  3435 net.cpp:94] Creating Layer inception_5a/output
I1127 18:47:56.099316  3435 net.cpp:435] inception_5a/output <- inception_5a/1x1
I1127 18:47:56.099319  3435 net.cpp:435] inception_5a/output <- inception_5a/3x3
I1127 18:47:56.099323  3435 net.cpp:435] inception_5a/output <- inception_5a/5x5
I1127 18:47:56.099325  3435 net.cpp:435] inception_5a/output <- inception_5a/pool_proj
I1127 18:47:56.099329  3435 net.cpp:409] inception_5a/output -> inception_5a/output
I1127 18:47:56.099347  3435 net.cpp:144] Setting up inception_5a/output
I1127 18:47:56.099352  3435 net.cpp:151] Top shape: 2 832 38 38 (2402816)
I1127 18:47:56.099355  3435 net.cpp:159] Memory required for data: 859123712
I1127 18:47:56.099357  3435 layer_factory.hpp:77] Creating layer inception_5a/output_inception_5a/output_0_split
I1127 18:47:56.099361  3435 net.cpp:94] Creating Layer inception_5a/output_inception_5a/output_0_split
I1127 18:47:56.099364  3435 net.cpp:435] inception_5a/output_inception_5a/output_0_split <- inception_5a/output
I1127 18:47:56.099369  3435 net.cpp:409] inception_5a/output_inception_5a/output_0_split -> inception_5a/output_inception_5a/output_0_split_0
I1127 18:47:56.099373  3435 net.cpp:409] inception_5a/output_inception_5a/output_0_split -> inception_5a/output_inception_5a/output_0_split_1
I1127 18:47:56.099378  3435 net.cpp:409] inception_5a/output_inception_5a/output_0_split -> inception_5a/output_inception_5a/output_0_split_2
I1127 18:47:56.099383  3435 net.cpp:409] inception_5a/output_inception_5a/output_0_split -> inception_5a/output_inception_5a/output_0_split_3
I1127 18:47:56.099424  3435 net.cpp:144] Setting up inception_5a/output_inception_5a/output_0_split
I1127 18:47:56.099428  3435 net.cpp:151] Top shape: 2 832 38 38 (2402816)
I1127 18:47:56.099431  3435 net.cpp:151] Top shape: 2 832 38 38 (2402816)
I1127 18:47:56.099434  3435 net.cpp:151] Top shape: 2 832 38 38 (2402816)
I1127 18:47:56.099437  3435 net.cpp:151] Top shape: 2 832 38 38 (2402816)
I1127 18:47:56.099439  3435 net.cpp:159] Memory required for data: 897568768
I1127 18:47:56.099442  3435 layer_factory.hpp:77] Creating layer inception_5b/1x1
I1127 18:47:56.099448  3435 net.cpp:94] Creating Layer inception_5b/1x1
I1127 18:47:56.099452  3435 net.cpp:435] inception_5b/1x1 <- inception_5a/output_inception_5a/output_0_split_0
I1127 18:47:56.099457  3435 net.cpp:409] inception_5b/1x1 -> inception_5b/1x1
I1127 18:47:56.101512  3435 net.cpp:144] Setting up inception_5b/1x1
I1127 18:47:56.101521  3435 net.cpp:151] Top shape: 2 384 38 38 (1108992)
I1127 18:47:56.101524  3435 net.cpp:159] Memory required for data: 902004736
I1127 18:47:56.101528  3435 layer_factory.hpp:77] Creating layer inception_5b/relu_1x1
I1127 18:47:56.101534  3435 net.cpp:94] Creating Layer inception_5b/relu_1x1
I1127 18:47:56.101537  3435 net.cpp:435] inception_5b/relu_1x1 <- inception_5b/1x1
I1127 18:47:56.101541  3435 net.cpp:396] inception_5b/relu_1x1 -> inception_5b/1x1 (in-place)
I1127 18:47:56.101547  3435 net.cpp:144] Setting up inception_5b/relu_1x1
I1127 18:47:56.101549  3435 net.cpp:151] Top shape: 2 384 38 38 (1108992)
I1127 18:47:56.101552  3435 net.cpp:159] Memory required for data: 906440704
I1127 18:47:56.101554  3435 layer_factory.hpp:77] Creating layer inception_5b/3x3_reduce
I1127 18:47:56.101560  3435 net.cpp:94] Creating Layer inception_5b/3x3_reduce
I1127 18:47:56.101563  3435 net.cpp:435] inception_5b/3x3_reduce <- inception_5a/output_inception_5a/output_0_split_1
I1127 18:47:56.101568  3435 net.cpp:409] inception_5b/3x3_reduce -> inception_5b/3x3_reduce
I1127 18:47:56.102830  3435 net.cpp:144] Setting up inception_5b/3x3_reduce
I1127 18:47:56.102838  3435 net.cpp:151] Top shape: 2 192 38 38 (554496)
I1127 18:47:56.102840  3435 net.cpp:159] Memory required for data: 908658688
I1127 18:47:56.102845  3435 layer_factory.hpp:77] Creating layer inception_5b/relu_3x3_reduce
I1127 18:47:56.102849  3435 net.cpp:94] Creating Layer inception_5b/relu_3x3_reduce
I1127 18:47:56.102852  3435 net.cpp:435] inception_5b/relu_3x3_reduce <- inception_5b/3x3_reduce
I1127 18:47:56.102855  3435 net.cpp:396] inception_5b/relu_3x3_reduce -> inception_5b/3x3_reduce (in-place)
I1127 18:47:56.102861  3435 net.cpp:144] Setting up inception_5b/relu_3x3_reduce
I1127 18:47:56.102864  3435 net.cpp:151] Top shape: 2 192 38 38 (554496)
I1127 18:47:56.102866  3435 net.cpp:159] Memory required for data: 910876672
I1127 18:47:56.102869  3435 layer_factory.hpp:77] Creating layer inception_5b/3x3
I1127 18:47:56.102875  3435 net.cpp:94] Creating Layer inception_5b/3x3
I1127 18:47:56.102879  3435 net.cpp:435] inception_5b/3x3 <- inception_5b/3x3_reduce
I1127 18:47:56.102882  3435 net.cpp:409] inception_5b/3x3 -> inception_5b/3x3
I1127 18:47:56.106586  3435 net.cpp:144] Setting up inception_5b/3x3
I1127 18:47:56.106596  3435 net.cpp:151] Top shape: 2 384 38 38 (1108992)
I1127 18:47:56.106598  3435 net.cpp:159] Memory required for data: 915312640
I1127 18:47:56.106603  3435 layer_factory.hpp:77] Creating layer inception_5b/relu_3x3
I1127 18:47:56.106607  3435 net.cpp:94] Creating Layer inception_5b/relu_3x3
I1127 18:47:56.106611  3435 net.cpp:435] inception_5b/relu_3x3 <- inception_5b/3x3
I1127 18:47:56.106616  3435 net.cpp:396] inception_5b/relu_3x3 -> inception_5b/3x3 (in-place)
I1127 18:47:56.106622  3435 net.cpp:144] Setting up inception_5b/relu_3x3
I1127 18:47:56.106626  3435 net.cpp:151] Top shape: 2 384 38 38 (1108992)
I1127 18:47:56.106627  3435 net.cpp:159] Memory required for data: 919748608
I1127 18:47:56.106629  3435 layer_factory.hpp:77] Creating layer inception_5b/5x5_reduce
I1127 18:47:56.106637  3435 net.cpp:94] Creating Layer inception_5b/5x5_reduce
I1127 18:47:56.106639  3435 net.cpp:435] inception_5b/5x5_reduce <- inception_5a/output_inception_5a/output_0_split_2
I1127 18:47:56.106644  3435 net.cpp:409] inception_5b/5x5_reduce -> inception_5b/5x5_reduce
I1127 18:47:56.107355  3435 net.cpp:144] Setting up inception_5b/5x5_reduce
I1127 18:47:56.107363  3435 net.cpp:151] Top shape: 2 48 38 38 (138624)
I1127 18:47:56.107365  3435 net.cpp:159] Memory required for data: 920303104
I1127 18:47:56.107370  3435 layer_factory.hpp:77] Creating layer inception_5b/relu_5x5_reduce
I1127 18:47:56.107374  3435 net.cpp:94] Creating Layer inception_5b/relu_5x5_reduce
I1127 18:47:56.107378  3435 net.cpp:435] inception_5b/relu_5x5_reduce <- inception_5b/5x5_reduce
I1127 18:47:56.107381  3435 net.cpp:396] inception_5b/relu_5x5_reduce -> inception_5b/5x5_reduce (in-place)
I1127 18:47:56.107395  3435 net.cpp:144] Setting up inception_5b/relu_5x5_reduce
I1127 18:47:56.107399  3435 net.cpp:151] Top shape: 2 48 38 38 (138624)
I1127 18:47:56.107401  3435 net.cpp:159] Memory required for data: 920857600
I1127 18:47:56.107404  3435 layer_factory.hpp:77] Creating layer inception_5b/5x5
I1127 18:47:56.107410  3435 net.cpp:94] Creating Layer inception_5b/5x5
I1127 18:47:56.107412  3435 net.cpp:435] inception_5b/5x5 <- inception_5b/5x5_reduce
I1127 18:47:56.107417  3435 net.cpp:409] inception_5b/5x5 -> inception_5b/5x5
I1127 18:47:56.108395  3435 net.cpp:144] Setting up inception_5b/5x5
I1127 18:47:56.108402  3435 net.cpp:151] Top shape: 2 128 38 38 (369664)
I1127 18:47:56.108404  3435 net.cpp:159] Memory required for data: 922336256
I1127 18:47:56.108408  3435 layer_factory.hpp:77] Creating layer inception_5b/relu_5x5
I1127 18:47:56.108412  3435 net.cpp:94] Creating Layer inception_5b/relu_5x5
I1127 18:47:56.108417  3435 net.cpp:435] inception_5b/relu_5x5 <- inception_5b/5x5
I1127 18:47:56.108419  3435 net.cpp:396] inception_5b/relu_5x5 -> inception_5b/5x5 (in-place)
I1127 18:47:56.108424  3435 net.cpp:144] Setting up inception_5b/relu_5x5
I1127 18:47:56.108428  3435 net.cpp:151] Top shape: 2 128 38 38 (369664)
I1127 18:47:56.108429  3435 net.cpp:159] Memory required for data: 923814912
I1127 18:47:56.108431  3435 layer_factory.hpp:77] Creating layer inception_5b/pool
I1127 18:47:56.108435  3435 net.cpp:94] Creating Layer inception_5b/pool
I1127 18:47:56.108438  3435 net.cpp:435] inception_5b/pool <- inception_5a/output_inception_5a/output_0_split_3
I1127 18:47:56.108443  3435 net.cpp:409] inception_5b/pool -> inception_5b/pool
I1127 18:47:56.108470  3435 net.cpp:144] Setting up inception_5b/pool
I1127 18:47:56.108474  3435 net.cpp:151] Top shape: 2 832 38 38 (2402816)
I1127 18:47:56.108476  3435 net.cpp:159] Memory required for data: 933426176
I1127 18:47:56.108479  3435 layer_factory.hpp:77] Creating layer inception_5b/pool_proj
I1127 18:47:56.108486  3435 net.cpp:94] Creating Layer inception_5b/pool_proj
I1127 18:47:56.108489  3435 net.cpp:435] inception_5b/pool_proj <- inception_5b/pool
I1127 18:47:56.108494  3435 net.cpp:409] inception_5b/pool_proj -> inception_5b/pool_proj
I1127 18:47:56.109474  3435 net.cpp:144] Setting up inception_5b/pool_proj
I1127 18:47:56.109483  3435 net.cpp:151] Top shape: 2 128 38 38 (369664)
I1127 18:47:56.109484  3435 net.cpp:159] Memory required for data: 934904832
I1127 18:47:56.109489  3435 layer_factory.hpp:77] Creating layer inception_5b/relu_pool_proj
I1127 18:47:56.109493  3435 net.cpp:94] Creating Layer inception_5b/relu_pool_proj
I1127 18:47:56.109498  3435 net.cpp:435] inception_5b/relu_pool_proj <- inception_5b/pool_proj
I1127 18:47:56.109500  3435 net.cpp:396] inception_5b/relu_pool_proj -> inception_5b/pool_proj (in-place)
I1127 18:47:56.109505  3435 net.cpp:144] Setting up inception_5b/relu_pool_proj
I1127 18:47:56.109509  3435 net.cpp:151] Top shape: 2 128 38 38 (369664)
I1127 18:47:56.109511  3435 net.cpp:159] Memory required for data: 936383488
I1127 18:47:56.109513  3435 layer_factory.hpp:77] Creating layer inception_5b/output
I1127 18:47:56.109519  3435 net.cpp:94] Creating Layer inception_5b/output
I1127 18:47:56.109520  3435 net.cpp:435] inception_5b/output <- inception_5b/1x1
I1127 18:47:56.109524  3435 net.cpp:435] inception_5b/output <- inception_5b/3x3
I1127 18:47:56.109527  3435 net.cpp:435] inception_5b/output <- inception_5b/5x5
I1127 18:47:56.109530  3435 net.cpp:435] inception_5b/output <- inception_5b/pool_proj
I1127 18:47:56.109534  3435 net.cpp:409] inception_5b/output -> inception_5b/output
I1127 18:47:56.109551  3435 net.cpp:144] Setting up inception_5b/output
I1127 18:47:56.109555  3435 net.cpp:151] Top shape: 2 1024 38 38 (2957312)
I1127 18:47:56.109557  3435 net.cpp:159] Memory required for data: 948212736
I1127 18:47:56.109560  3435 layer_factory.hpp:77] Creating layer pool5/drop_s1
I1127 18:47:56.109565  3435 net.cpp:94] Creating Layer pool5/drop_s1
I1127 18:47:56.109566  3435 net.cpp:435] pool5/drop_s1 <- inception_5b/output
I1127 18:47:56.109580  3435 net.cpp:409] pool5/drop_s1 -> pool5/drop_s1
I1127 18:47:56.109607  3435 net.cpp:144] Setting up pool5/drop_s1
I1127 18:47:56.109612  3435 net.cpp:151] Top shape: 2 1024 38 38 (2957312)
I1127 18:47:56.109616  3435 net.cpp:159] Memory required for data: 960041984
I1127 18:47:56.109617  3435 layer_factory.hpp:77] Creating layer pool5/drop_s1_pool5/drop_s1_0_split
I1127 18:47:56.109622  3435 net.cpp:94] Creating Layer pool5/drop_s1_pool5/drop_s1_0_split
I1127 18:47:56.109623  3435 net.cpp:435] pool5/drop_s1_pool5/drop_s1_0_split <- pool5/drop_s1
I1127 18:47:56.109627  3435 net.cpp:409] pool5/drop_s1_pool5/drop_s1_0_split -> pool5/drop_s1_pool5/drop_s1_0_split_0
I1127 18:47:56.109632  3435 net.cpp:409] pool5/drop_s1_pool5/drop_s1_0_split -> pool5/drop_s1_pool5/drop_s1_0_split_1
I1127 18:47:56.109657  3435 net.cpp:144] Setting up pool5/drop_s1_pool5/drop_s1_0_split
I1127 18:47:56.109660  3435 net.cpp:151] Top shape: 2 1024 38 38 (2957312)
I1127 18:47:56.109663  3435 net.cpp:151] Top shape: 2 1024 38 38 (2957312)
I1127 18:47:56.109665  3435 net.cpp:159] Memory required for data: 983700480
I1127 18:47:56.109668  3435 layer_factory.hpp:77] Creating layer cvg/classifier
I1127 18:47:56.109674  3435 net.cpp:94] Creating Layer cvg/classifier
I1127 18:47:56.109678  3435 net.cpp:435] cvg/classifier <- pool5/drop_s1_pool5/drop_s1_0_split_0
I1127 18:47:56.109683  3435 net.cpp:409] cvg/classifier -> cvg/classifier
I1127 18:47:56.109853  3435 net.cpp:144] Setting up cvg/classifier
I1127 18:47:56.109858  3435 net.cpp:151] Top shape: 2 1 38 38 (2888)
I1127 18:47:56.109860  3435 net.cpp:159] Memory required for data: 983712032
I1127 18:47:56.109864  3435 layer_factory.hpp:77] Creating layer coverage/sig
I1127 18:47:56.109869  3435 net.cpp:94] Creating Layer coverage/sig
I1127 18:47:56.109870  3435 net.cpp:435] coverage/sig <- cvg/classifier
I1127 18:47:56.109874  3435 net.cpp:409] coverage/sig -> coverage
I1127 18:47:56.109891  3435 net.cpp:144] Setting up coverage/sig
I1127 18:47:56.109894  3435 net.cpp:151] Top shape: 2 1 38 38 (2888)
I1127 18:47:56.109897  3435 net.cpp:159] Memory required for data: 983723584
I1127 18:47:56.109899  3435 layer_factory.hpp:77] Creating layer bbox/regressor
I1127 18:47:56.109905  3435 net.cpp:94] Creating Layer bbox/regressor
I1127 18:47:56.109907  3435 net.cpp:435] bbox/regressor <- pool5/drop_s1_pool5/drop_s1_0_split_1
I1127 18:47:56.109913  3435 net.cpp:409] bbox/regressor -> bboxes
I1127 18:47:56.110100  3435 net.cpp:144] Setting up bbox/regressor
I1127 18:47:56.110105  3435 net.cpp:151] Top shape: 2 4 38 38 (11552)
I1127 18:47:56.110107  3435 net.cpp:159] Memory required for data: 983769792
I1127 18:47:56.110111  3435 layer_factory.hpp:77] Creating layer bbox_mask
I1127 18:47:56.110116  3435 net.cpp:94] Creating Layer bbox_mask
I1127 18:47:56.110117  3435 net.cpp:435] bbox_mask <- bboxes
I1127 18:47:56.110121  3435 net.cpp:435] bbox_mask <- coverage-block
I1127 18:47:56.110126  3435 net.cpp:409] bbox_mask -> bboxes-masked
I1127 18:47:56.110141  3435 net.cpp:144] Setting up bbox_mask
I1127 18:47:56.110146  3435 net.cpp:151] Top shape: 2 4 38 38 (11552)
I1127 18:47:56.110147  3435 net.cpp:159] Memory required for data: 983816000
I1127 18:47:56.110150  3435 layer_factory.hpp:77] Creating layer bbox-norm
I1127 18:47:56.110154  3435 net.cpp:94] Creating Layer bbox-norm
I1127 18:47:56.110157  3435 net.cpp:435] bbox-norm <- bboxes-masked
I1127 18:47:56.110160  3435 net.cpp:435] bbox-norm <- size-block_size-block_0_split_1
I1127 18:47:56.110164  3435 net.cpp:409] bbox-norm -> bboxes-masked-norm
I1127 18:47:56.110179  3435 net.cpp:144] Setting up bbox-norm
I1127 18:47:56.110183  3435 net.cpp:151] Top shape: 2 4 38 38 (11552)
I1127 18:47:56.110185  3435 net.cpp:159] Memory required for data: 983862208
I1127 18:47:56.110188  3435 layer_factory.hpp:77] Creating layer bbox-obj-norm
I1127 18:47:56.110191  3435 net.cpp:94] Creating Layer bbox-obj-norm
I1127 18:47:56.110193  3435 net.cpp:435] bbox-obj-norm <- bboxes-masked-norm
I1127 18:47:56.110196  3435 net.cpp:435] bbox-obj-norm <- obj-block_obj-block_0_split_1
I1127 18:47:56.110206  3435 net.cpp:409] bbox-obj-norm -> bboxes-obj-masked-norm
I1127 18:47:56.110222  3435 net.cpp:144] Setting up bbox-obj-norm
I1127 18:47:56.110226  3435 net.cpp:151] Top shape: 2 4 38 38 (11552)
I1127 18:47:56.110229  3435 net.cpp:159] Memory required for data: 983908416
I1127 18:47:56.110230  3435 layer_factory.hpp:77] Creating layer bbox_loss
I1127 18:47:56.110234  3435 net.cpp:94] Creating Layer bbox_loss
I1127 18:47:56.110237  3435 net.cpp:435] bbox_loss <- bboxes-obj-masked-norm
I1127 18:47:56.110239  3435 net.cpp:435] bbox_loss <- bbox-obj-label-norm
I1127 18:47:56.110244  3435 net.cpp:409] bbox_loss -> loss_bbox
…
I1127 18:47:56.113677  3435 net.cpp:323] The NetState phase (1) differed from the phase (0) specified by a rule in layer train_transform
I1127 18:47:56.114347  3435 net.cpp:52] Initializing net from parameters:
state {
phase: TEST
}
layer {
name: "val_data"
type: "Data"
top: "data"
include {
phase: TEST
}
data_param {
source: "/home/krishneel/digits/digits/jobs/20161127-153146-188c/val_db/features"
batch_size: 2
backend: LMDB
}
}
layer {
name: "val_label"
type: "Data"
top: "label"
include {
phase: TEST
}
data_param {
source: "/home/krishneel/digits/digits/jobs/20161127-153146-188c/val_db/labels"
batch_size: 2
backend: LMDB
}
}
layer {
name: "val_transform"
type: "DetectNetTransformation"
bottom: "data"
bottom: "label"
top: "transformed_data"
top: "transformed_label"
include {
phase: TEST
}
transform_param {
mean_value: 127
}
detectnet_groundtruth_param {
stride: 16
scale_cvg: 0.4
gridbox_type: GRIDBOX_MIN
min_cvg_len: 20
coverage_type: RECTANGULAR
image_size_x: 610
image_size_y: 610
obj_norm: true
crop_bboxes: false
object_class {
src: 1
dst: 0
}
}
}
layer {
name: "slice-label"
type: "Slice"
bottom: "transformed_label"
top: "foreground-label"
top: "bbox-label"
top: "size-label"
top: "obj-label"
top: "coverage-label"
slice_param {
slice_dim: 1
slice_point: 1
slice_point: 5
slice_point: 7
slice_point: 8
}
}
layer {
name: "coverage-block"
type: "Concat"
bottom: "foreground-label"
bottom: "foreground-label"
bottom: "foreground-label"
bottom: "foreground-label"
top: "coverage-block"
concat_param {
concat_dim: 1
}
}
layer {
name: "size-block"
type: "Concat"
bottom: "size-label"
bottom: "size-label"
top: "size-block"
concat_param {
concat_dim: 1
}
}
layer {
name: "obj-block"
type: "Concat"
bottom: "obj-label"
bottom: "obj-label"
bottom: "obj-label"
bottom: "obj-label"
top: "obj-block"
concat_param {
concat_dim: 1
}
}
layer {
name: "bb-label-norm"
type: "Eltwise"
bottom: "bbox-label"
bottom: "size-block"
top: "bbox-label-norm"
eltwise_param {
operation: PROD
}
}
layer {
name: "bb-obj-norm"
type: "Eltwise"
bottom: "bbox-label-norm"
bottom: "obj-block"
top: "bbox-obj-label-norm"
eltwise_param {
operation: PROD
}
}
layer {
name: "conv1/7x7_s2"
type: "Convolution"
bottom: "transformed_data"
top: "conv1/7x7_s2"
param {
lr_mult: 1
decay_mult: 1
}
param {
lr_mult: 2
decay_mult: 0
}
convolution_param {
num_output: 64
pad: 3
kernel_size: 7
stride: 2
weight_filler {
type: "xavier"
std: 0.1
}
bias_filler {
type: "constant"
value: 0.2
}
}
}
layer {
name: "conv1/relu_7x7"
type: "ReLU"
bottom: "conv1/7x7_s2"
top: "conv1/7x7_s2"
}
layer {
name: "pool1/3x3_s2"
type: "Pooling"
bottom: "conv1/7x7_s2"
top: "pool1/3x3_s2"
pooling_param {
pool: MAX
kernel_size: 3
stride: 2
}
}
layer {
name: "pool1/norm1"
type: "LRN"
bottom: "pool1/3x3_s2"
top: "pool1/norm1"
lrn_param {
local_size: 5
alpha: 0.0001
beta: 0.75
}
}
layer {
name: "conv2/3x3_reduce"
type: "Convolution"
bottom: "pool1/norm1"
top: "conv2/3x3_reduce"
param {
lr_mult: 1
decay_mult: 1
}
param {
lr_mult: 2
decay_mult: 0
}
convolution_param {
num_output: 64
kernel_size: 1
weight_filler {
type: "xavier"
std: 0.1
}
bias_filler {
type: "constant"
value: 0.2
}
}
}
layer {
name: "conv2/relu_3x3_reduce"
type: "ReLU"
bottom: "conv2/3x3_reduce"
top: "conv2/3x3_reduce"
}
layer {
name: "conv2/3x3"
type: "Convolution"
bottom: "conv2/3x3_reduce"
top: "conv2/3x3"
param {
lr_mult: 1
decay_mult: 1
}
param {
lr_mult: 2
decay_mult: 0
}
convolution_param {
num_output: 192
pad: 1
kernel_size: 3
weight_filler {
type: "xavier"
std: 0.03
}
bias_filler {
type: "constant"
value: 0.2
}
}
}
layer {
name: "conv2/relu_3x3"
type: "ReLU"
bottom: "conv2/3x3"
top: "conv2/3x3"
}
layer {
name: "conv2/norm2"
type: "LRN"
bottom: "conv2/3x3"
top: "conv2/norm2"
lrn_param {
local_size: 5
alpha: 0.0001
beta: 0.75
}
}
layer {
name: "pool2/3x3_s2"
type: "Pooling"
bottom: "conv2/norm2"
top: "pool2/3x3_s2"
pooling_param {
pool: MAX
kernel_size: 3
stride: 2
}
}
layer {
name: "inception_3a/1x1"
type: "Convolution"
bottom: "pool2/3x3_s2"
top: "inception_3a/1x1"
param {
lr_mult: 1
decay_mult: 1
}
param {
lr_mult: 2
decay_mult: 0
}
convolution_param {
num_output: 64
kernel_size: 1
weight_filler {
type: "xavier"
std: 0.03
}
bias_filler {
type: "constant"
value: 0.2
}
}
}
layer {
name: "inception_3a/relu_1x1"
type: "ReLU"
bottom: "inception_3a/1x1"
top: "inception_3a/1x1"
}
layer {
name: "inception_3a/3x3_reduce"
type: "Convolution"
bottom: "pool2/3x3_s2"
top: "inception_3a/3x3_reduce"
param {
lr_mult: 1
decay_mult: 1
}
param {
lr_mult: 2
decay_mult: 0
}
convolution_param {
num_output: 96
kernel_size: 1
weight_filler {
type: "xavier"
std: 0.09
}
bias_filler {
type: "constant"
value: 0.2
}
}
}
layer {
name: "inception_3a/relu_3x3_reduce"
type: "ReLU"
bottom: "inception_3a/3x3_reduce"
top: "inception_3a/3x3_reduce"
}
layer {
name: "inception_3a/3x3"
type: "Convolution"
bottom: "inception_3a/3x3_reduce"
top: "inception_3a/3x3"
param {
lr_mult: 1
decay_mult: 1
}
param {
lr_mult: 2
decay_mult: 0
}
convolution_param {
num_output: 128
pad: 1
kernel_size: 3
weight_filler {
type: "xavier"
std: 0.03
}
bias_filler {
type: "constant"
value: 0.2
}
}
}
layer {
name: "inception_3a/relu_3x3"
type: "ReLU"
bottom: "inception_3a/3x3"
top: "inception_3a/3x3"
}
layer {
name: "inception_3a/5x5_reduce"
type: "Convolution"
bottom: "pool2/3x3_s2"
top: "inception_3a/5x5_reduce"
param {
lr_mult: 1
decay_mult: 1
}
param {
lr_mult: 2
decay_mult: 0
}
convolution_param {
num_output: 16
kernel_size: 1
weight_filler {
type: "xavier"
std: 0.2
}
bias_filler {
type: "constant"
value: 0.2
}
}
}
layer {
name: "inception_3a/relu_5x5_reduce"
type: "ReLU"
bottom: "inception_3a/5x5_reduce"
top: "inception_3a/5x5_reduce"
}
layer {
name: "inception_3a/5x5"
type: "Convolution"
bottom: "inception_3a/5x5_reduce"
top: "inception_3a/5x5"
param {
lr_mult: 1
decay_mult: 1
}
param {
lr_mult: 2
decay_mult: 0
}
convolution_param {
num_output: 32
pad: 2
kernel_size: 5
weight_filler {
type: "xavier"
std: 0.03
}
bias_filler {
type: "constant"
value: 0.2
}
}
}
layer {
name: "inception_3a/relu_5x5"
type: "ReLU"
bottom: "inception_3a/5x5"
top: "inception_3a/5x5"
}
layer {
name: "inception_3a/pool"
type: "Pooling"
bottom: "pool2/3x3_s2"
top: "inception_3a/pool"
pooling_param {
pool: MAX
kernel_size: 3
stride: 1
pad: 1
}
}
layer {
name: "inception_3a/pool_proj"
type: "Convolution"
bottom: "inception_3a/pool"
top: "inception_3a/pool_proj"
param {
lr_mult: 1
decay_mult: 1
}
param {
lr_mult: 2
decay_mult: 0
}
convolution_param {
num_output: 32
kernel_size: 1
weight_filler {
type: "xavier"
std: 0.1
}
bias_filler {
type: "constant"
value: 0.2
}
}
}
layer {
name: "inception_3a/relu_pool_proj"
type: "ReLU"
bottom: "inception_3a/pool_proj"
top: "inception_3a/pool_proj"
}
layer {
name: "inception_3a/output"
type: "Concat"
bottom: "inception_3a/1x1"
bottom: "inception_3a/3x3"
bottom: "inception_3a/5x5"
bottom: "inception_3a/pool_proj"
top: "inception_3a/output"
}
layer {
name: "inception_3b/1x1"
type: "Convolution"
bottom: "inception_3a/output"
top: "inception_3b/1x1"
param {
lr_mult: 1
decay_mult: 1
}
param {
lr_mult: 2
decay_mult: 0
}
convolution_param {
num_output: 128
kernel_size: 1
weight_filler {
type: "xavier"
std: 0.03
}
bias_filler {
type: "constant"
value: 0.2
}
}
}
layer {
name: "inception_3b/relu_1x1"
type: "ReLU"
bottom: "inception_3b/1x1"
top: "inception_3b/1x1"
}
layer {
name: "inception_3b/3x3_reduce"
type: "Convolution"
bottom: "inception_3a/output"
top: "inception_3b/3x3_reduce"
param {
lr_mult: 1
decay_mult: 1
}
param {
lr_mult: 2
decay_mult: 0
}
convolution_param {
num_output: 128
kernel_size: 1
weight_filler {
type: "xavier"
std: 0.09
}
bias_filler {
type: "constant"
value: 0.2
}
}
}
layer {
name: "inception_3b/relu_3x3_reduce"
type: "ReLU"
bottom: "inception_3b/3x3_reduce"
top: "inception_3b/3x3_reduce"
}
layer {
name: "inception_3b/3x3"
type: "Convolution"
bottom: "inception_3b/3x3_reduce"
top: "inception_3b/3x3"
param {
lr_mult: 1
decay_mult: 1
}
param {
lr_mult: 2
decay_mult: 0
}
convolution_param {
num_output: 192
pad: 1
kernel_size: 3
weight_filler {
type: "xavier"
std: 0.03
}
bias_filler {
type: "constant"
value: 0.2
}
}
}
layer {
name: "inception_3b/relu_3x3"
type: "ReLU"
bottom: "inception_3b/3x3"
top: "inception_3b/3x3"
}
layer {
name: "inception_3b/5x5_reduce"
type: "Convolution"
bottom: "inception_3a/output"
top: "inception_3b/5x5_reduce"
param {
lr_mult: 1
decay_mult: 1
}
param {
lr_mult: 2
decay_mult: 0
}
convolution_param {
num_output: 32
kernel_size: 1
weight_filler {
type: "xavier"
std: 0.2
}
bias_filler {
type: "constant"
value: 0.2
}
}
}
layer {
name: "inception_3b/relu_5x5_reduce"
type: "ReLU"
bottom: "inception_3b/5x5_reduce"
top: "inception_3b/5x5_reduce"
}
layer {
name: "inception_3b/5x5"
type: "Convolution"
bottom: "inception_3b/5x5_reduce"
top: "inception_3b/5x5"
param {
lr_mult: 1
decay_mult: 1
}
param {
lr_mult: 2
decay_mult: 0
}
convolution_param {
num_output: 96
pad: 2
kernel_size: 5
weight_filler {
type: "xavier"
std: 0.03
}
bias_filler {
type: "constant"
value: 0.2
}
}
}
layer {
name: "inception_3b/relu_5x5"
type: "ReLU"
bottom: "inception_3b/5x5"
top: "inception_3b/5x5"
}
layer {
name: "inception_3b/pool"
type: "Pooling"
bottom: "inception_3a/output"
top: "inception_3b/pool"
pooling_param {
pool: MAX
kernel_size: 3
stride: 1
pad: 1
}
}
layer {
name: "inception_3b/pool_proj"
type: "Convolution"
bottom: "inception_3b/pool"
top: "inception_3b/pool_proj"
param {
lr_mult: 1
decay_mult: 1
}
param {
lr_mult: 2
decay_mult: 0
}
convolution_param {
num_output: 64
kernel_size: 1
weight_filler {
type: "xavier"
std: 0.1
}
bias_filler {
type: "constant"
value: 0.2
}
}
}
layer {
name: "inception_3b/relu_pool_proj"
type: "ReLU"
bottom: "inception_3b/pool_proj"
top: "inception_3b/pool_proj"
}
layer {
name: "inception_3b/output"
type: "Concat"
bottom: "inception_3b/1x1"
bottom: "inception_3b/3x3"
bottom: "inception_3b/5x5"
bottom: "inception_3b/pool_proj"
top: "inception_3b/output"
}
layer {
name: "pool3/3x3_s2"
type: "Pooling"
bottom: "inception_3b/output"
top: "pool3/3x3_s2"
pooling_param {
pool: MAX
kernel_size: 3
stride: 2
}
}
layer {
name: "inception_4a/1x1"
type: "Convolution"
bottom: "pool3/3x3_s2"
top: "inception_4a/1x1"
param {
lr_mult: 1
decay_mult: 1
}
param {
lr_mult: 2
decay_mult: 0
}
convolution_param {
num_output: 192
kernel_size: 1
weight_filler {
type: "xavier"
std: 0.03
}
bias_filler {
type: "constant"
value: 0.2
}
}
}
layer {
name: "inception_4a/relu_1x1"
type: "ReLU"
bottom: "inception_4a/1x1"
top: "inception_4a/1x1"
}
layer {
name: "inception_4a/3x3_reduce"
type: "Convolution"
bottom: "pool3/3x3_s2"
top: "inception_4a/3x3_reduce"
param {
lr_mult: 1
decay_mult: 1
}
param {
lr_mult: 2
decay_mult: 0
}
convolution_param {
num_output: 96
kernel_size: 1
weight_filler {
type: "xavier"
std: 0.09
}
bias_filler {
type: "constant"
value: 0.2
}
}
}
layer {
name: "inception_4a/relu_3x3_reduce"
type: "ReLU"
bottom: "inception_4a/3x3_reduce"
top: "inception_4a/3x3_reduce"
}
layer {
name: "inception_4a/3x3"
type: "Convolution"
bottom: "inception_4a/3x3_reduce"
top: "inception_4a/3x3"
param {
lr_mult: 1
decay_mult: 1
}
param {
lr_mult: 2
decay_mult: 0
}
convolution_param {
num_output: 208
pad: 1
kernel_size: 3
weight_filler {
type: "xavier"
std: 0.03
}
bias_filler {
type: "constant"
value: 0.2
}
}
}
layer {
name: "inception_4a/relu_3x3"
type: "ReLU"
bottom: "inception_4a/3x3"
top: "inception_4a/3x3"
}
layer {
name: "inception_4a/5x5_reduce"
type: "Convolution"
bottom: "pool3/3x3_s2"
top: "inception_4a/5x5_reduce"
param {
lr_mult: 1
decay_mult: 1
}
param {
lr_mult: 2
decay_mult: 0
}
convolution_param {
num_output: 16
kernel_size: 1
weight_filler {
type: "xavier"
std: 0.2
}
bias_filler {
type: "constant"
value: 0.2
}
}
}
layer {
name: "inception_4a/relu_5x5_reduce"
type: "ReLU"
bottom: "inception_4a/5x5_reduce"
top: "inception_4a/5x5_reduce"
}
layer {
name: "inception_4a/5x5"
type: "Convolution"
bottom: "inception_4a/5x5_reduce"
top: "inception_4a/5x5"
param {
lr_mult: 1
decay_mult: 1
}
param {
lr_mult: 2
decay_mult: 0
}
convolution_param {
num_output: 48
pad: 2
kernel_size: 5
weight_filler {
type: "xavier"
std: 0.03
}
bias_filler {
type: "constant"
value: 0.2
}
}
}
layer {
name: "inception_4a/relu_5x5"
type: "ReLU"
bottom: "inception_4a/5x5"
top: "inception_4a/5x5"
}
layer {
name: "inception_4a/pool"
type: "Pooling"
bottom: "pool3/3x3_s2"
top: "inception_4a/pool"
pooling_param {
pool: MAX
kernel_size: 3
stride: 1
pad: 1
}
}
layer {
name: "inception_4a/pool_proj"
type: "Convolution"
bottom: "inception_4a/pool"
top: "inception_4a/pool_proj"
param {
lr_mult: 1
decay_mult: 1
}
param {
lr_mult: 2
decay_mult: 0
}
convolution_param {
num_output: 64
kernel_size: 1
weight_filler {
type: "xavier"
std: 0.1
}
bias_filler {
type: "constant"
value: 0.2
}
}
}
layer {
name: "inception_4a/relu_pool_proj"
type: "ReLU"
bottom: "inception_4a/pool_proj"
top: "inception_4a/pool_proj"
}
layer {
name: "inception_4a/output"
type: "Concat"
bottom: "inception_4a/1x1"
bottom: "inception_4a/3x3"
bottom: "inception_4a/5x5"
bottom: "inception_4a/pool_proj"
top: "inception_4a/output"
}
layer {
name: "inception_4b/1x1"
type: "Convolution"
bottom: "inception_4a/output"
top: "inception_4b/1x1"
param {
lr_mult: 1
decay_mult: 1
}
param {
lr_mult: 2
decay_mult: 0
}
convolution_param {
num_output: 160
kernel_size: 1
weight_filler {
type: "xavier"
std: 0.03
}
bias_filler {
type: "constant"
value: 0.2
}
}
}
layer {
name: "inception_4b/relu_1x1"
type: "ReLU"
bottom: "inception_4b/1x1"
top: "inception_4b/1x1"
}
layer {
name: "inception_4b/3x3_reduce"
type: "Convolution"
bottom: "inception_4a/output"
top: "inception_4b/3x3_reduce"
param {
lr_mult: 1
decay_mult: 1
}
param {
lr_mult: 2
decay_mult: 0
}
convolution_param {
num_output: 112
kernel_size: 1
weight_filler {
type: "xavier"
std: 0.09
}
bias_filler {
type: "constant"
value: 0.2
}
}
}
layer {
name: "inception_4b/relu_3x3_reduce"
type: "ReLU"
bottom: "inception_4b/3x3_reduce"
top: "inception_4b/3x3_reduce"
}
layer {
name: "inception_4b/3x3"
type: "Convolution"
bottom: "inception_4b/3x3_reduce"
top: "inception_4b/3x3"
param {
lr_mult: 1
decay_mult: 1
}
param {
lr_mult: 2
decay_mult: 0
}
convolution_param {
num_output: 224
pad: 1
kernel_size: 3
weight_filler {
type: "xavier"
std: 0.03
}
bias_filler {
type: "constant"
value: 0.2
}
}
}
layer {
name: "inception_4b/relu_3x3"
type: "ReLU"
bottom: "inception_4b/3x3"
top: "inception_4b/3x3"
}
layer {
name: "inception_4b/5x5_reduce"
type: "Convolution"
bottom: "inception_4a/output"
top: "inception_4b/5x5_reduce"
param {
lr_mult: 1
decay_mult: 1
}
param {
lr_mult: 2
decay_mult: 0
}
convolution_param {
num_output: 24
kernel_size: 1
weight_filler {
type: "xavier"
std: 0.2
}
bias_filler {
type: "constant"
value: 0.2
}
}
}
layer {
name: "inception_4b/relu_5x5_reduce"
type: "ReLU"
bottom: "inception_4b/5x5_reduce"
top: "inception_4b/5x5_reduce"
}
layer {
name: "inception_4b/5x5"
type: "Convolution"
bottom: "inception_4b/5x5_reduce"
top: "inception_4b/5x5"
param {
lr_mult: 1
decay_mult: 1
}
param {
lr_mult: 2
decay_mult: 0
}
convolution_param {
num_output: 64
pad: 2
kernel_size: 5
weight_filler {
type: "xavier"
std: 0.03
}
bias_filler {
type: "constant"
value: 0.2
}
}
}
layer {
name: "inception_4b/relu_5x5"
type: "ReLU"
bottom: "inception_4b/5x5"
top: "inception_4b/5x5"
}
layer {
name: "inception_4b/pool"
type: "Pooling"
bottom: "inception_4a/output"
top: "inception_4b/pool"
pooling_param {
pool: MAX
kernel_size: 3
stride: 1
pad: 1
}
}
layer {
name: "inception_4b/pool_proj"
type: "Convolution"
bottom: "inception_4b/pool"
top: "inception_4b/pool_proj"
param {
lr_mult: 1
decay_mult: 1
}
param {
lr_mult: 2
decay_mult: 0
}
convolution_param {
num_output: 64
kernel_size: 1
weight_filler {
type: "xavier"
std: 0.1
}
bias_filler {
type: "constant"
value: 0.2
}
}
}
layer {
name: "inception_4b/relu_pool_proj"
type: "ReLU"
bottom: "inception_4b/pool_proj"
top: "inception_4b/pool_proj"
}
layer {
name: "inception_4b/output"
type: "Concat"
bottom: "inception_4b/1x1"
bottom: "inception_4b/3x3"
bottom: "inception_4b/5x5"
bottom: "inception_4b/pool_proj"
top: "inception_4b/output"
}
layer {
name: "inception_4c/1x1"
type: "Convolution"
bottom: "inception_4b/output"
top: "inception_4c/1x1"
param {
lr_mult: 1
decay_mult: 1
}
param {
lr_mult: 2
decay_mult: 0
}
convolution_param {
num_output: 128
kernel_size: 1
weight_filler {
type: "xavier"
std: 0.03
}
bias_filler {
type: "constant"
value: 0.2
}
}
}
layer {
name: "inception_4c/relu_1x1"
type: "ReLU"
bottom: "inception_4c/1x1"
top: "inception_4c/1x1"
}
layer {
name: "inception_4c/3x3_reduce"
type: "Convolution"
bottom: "inception_4b/output"
top: "inception_4c/3x3_reduce"
param {
…
I1127 18:47:56.167754  3435 layer_factory.hpp:77] Creating layer inception_4c/pool_proj
I1127 18:47:56.167762  3435 net.cpp:94] Creating Layer inception_4c/pool_proj
I1127 18:47:56.167765  3435 net.cpp:435] inception_4c/pool_proj <- inception_4c/pool
I1127 18:47:56.167771  3435 net.cpp:409] inception_4c/pool_proj -> inception_4c/pool_proj
I1127 18:47:56.168248  3435 net.cpp:144] Setting up inception_4c/pool_proj
I1127 18:47:56.168256  3435 net.cpp:151] Top shape: 2 64 38 38 (184832)
I1127 18:47:56.168261  3435 net.cpp:159] Memory required for data: 655554368
I1127 18:47:56.168273  3435 layer_factory.hpp:77] Creating layer inception_4c/relu_pool_proj
I1127 18:47:56.168279  3435 net.cpp:94] Creating Layer inception_4c/relu_pool_proj
I1127 18:47:56.168283  3435 net.cpp:435] inception_4c/relu_pool_proj <- inception_4c/pool_proj
I1127 18:47:56.168289  3435 net.cpp:396] inception_4c/relu_pool_proj -> inception_4c/pool_proj (in-place)
I1127 18:47:56.168295  3435 net.cpp:144] Setting up inception_4c/relu_pool_proj
I1127 18:47:56.168300  3435 net.cpp:151] Top shape: 2 64 38 38 (184832)
I1127 18:47:56.168303  3435 net.cpp:159] Memory required for data: 656293696
I1127 18:47:56.168308  3435 layer_factory.hpp:77] Creating layer inception_4c/output
I1127 18:47:56.168313  3435 net.cpp:94] Creating Layer inception_4c/output
I1127 18:47:56.168315  3435 net.cpp:435] inception_4c/output <- inception_4c/1x1
I1127 18:47:56.168320  3435 net.cpp:435] inception_4c/output <- inception_4c/3x3
I1127 18:47:56.168324  3435 net.cpp:435] inception_4c/output <- inception_4c/5x5
I1127 18:47:56.168329  3435 net.cpp:435] inception_4c/output <- inception_4c/pool_proj
I1127 18:47:56.168334  3435 net.cpp:409] inception_4c/output -> inception_4c/output
I1127 18:47:56.189587  3435 net.cpp:144] Setting up inception_4c/output
I1127 18:47:56.189601  3435 net.cpp:151] Top shape: 2 512 38 38 (1478656)
I1127 18:47:56.189606  3435 net.cpp:159] Memory required for data: 662208320
I1127 18:47:56.189610  3435 layer_factory.hpp:77] Creating layer inception_4c/output_inception_4c/output_0_split
I1127 18:47:56.189618  3435 net.cpp:94] Creating Layer inception_4c/output_inception_4c/output_0_split
I1127 18:47:56.189622  3435 net.cpp:435] inception_4c/output_inception_4c/output_0_split <- inception_4c/output
I1127 18:47:56.189630  3435 net.cpp:409] inception_4c/output_inception_4c/output_0_split -> inception_4c/output_inception_4c/output_0_split_0
I1127 18:47:56.189636  3435 net.cpp:409] inception_4c/output_inception_4c/output_0_split -> inception_4c/output_inception_4c/output_0_split_1
I1127 18:47:56.189656  3435 net.cpp:409] inception_4c/output_inception_4c/output_0_split -> inception_4c/output_inception_4c/output_0_split_2
I1127 18:47:56.189662  3435 net.cpp:409] inception_4c/output_inception_4c/output_0_split -> inception_4c/output_inception_4c/output_0_split_3
I1127 18:47:56.189734  3435 net.cpp:144] Setting up inception_4c/output_inception_4c/output_0_split
I1127 18:47:56.189740  3435 net.cpp:151] Top shape: 2 512 38 38 (1478656)
I1127 18:47:56.189745  3435 net.cpp:151] Top shape: 2 512 38 38 (1478656)
I1127 18:47:56.189750  3435 net.cpp:151] Top shape: 2 512 38 38 (1478656)
I1127 18:47:56.189755  3435 net.cpp:151] Top shape: 2 512 38 38 (1478656)
I1127 18:47:56.189759  3435 net.cpp:159] Memory required for data: 685866816
I1127 18:47:56.189762  3435 layer_factory.hpp:77] Creating layer inception_4d/1x1
I1127 18:47:56.189771  3435 net.cpp:94] Creating Layer inception_4d/1x1
I1127 18:47:56.189775  3435 net.cpp:435] inception_4d/1x1 <- inception_4c/output_inception_4c/output_0_split_0
I1127 18:47:56.189782  3435 net.cpp:409] inception_4d/1x1 -> inception_4d/1x1
I1127 18:47:56.190459  3435 net.cpp:144] Setting up inception_4d/1x1
I1127 18:47:56.190469  3435 net.cpp:151] Top shape: 2 112 38 38 (323456)
I1127 18:47:56.190472  3435 net.cpp:159] Memory required for data: 687160640
I1127 18:47:56.190479  3435 layer_factory.hpp:77] Creating layer inception_4d/relu_1x1
I1127 18:47:56.190485  3435 net.cpp:94] Creating Layer inception_4d/relu_1x1
I1127 18:47:56.190490  3435 net.cpp:435] inception_4d/relu_1x1 <- inception_4d/1x1
I1127 18:47:56.190495  3435 net.cpp:396] inception_4d/relu_1x1 -> inception_4d/1x1 (in-place)
I1127 18:47:56.190502  3435 net.cpp:144] Setting up inception_4d/relu_1x1
I1127 18:47:56.190507  3435 net.cpp:151] Top shape: 2 112 38 38 (323456)
I1127 18:47:56.190511  3435 net.cpp:159] Memory required for data: 688454464
I1127 18:47:56.190515  3435 layer_factory.hpp:77] Creating layer inception_4d/3x3_reduce
I1127 18:47:56.190522  3435 net.cpp:94] Creating Layer inception_4d/3x3_reduce
I1127 18:47:56.190526  3435 net.cpp:435] inception_4d/3x3_reduce <- inception_4c/output_inception_4c/output_0_split_1
I1127 18:47:56.190533  3435 net.cpp:409] inception_4d/3x3_reduce -> inception_4d/3x3_reduce
I1127 18:47:56.191335  3435 net.cpp:144] Setting up inception_4d/3x3_reduce
I1127 18:47:56.191344  3435 net.cpp:151] Top shape: 2 144 38 38 (415872)
I1127 18:47:56.191349  3435 net.cpp:159] Memory required for data: 690117952
I1127 18:47:56.191355  3435 layer_factory.hpp:77] Creating layer inception_4d/relu_3x3_reduce
I1127 18:47:56.191373  3435 net.cpp:94] Creating Layer inception_4d/relu_3x3_reduce
I1127 18:47:56.191378  3435 net.cpp:435] inception_4d/relu_3x3_reduce <- inception_4d/3x3_reduce
I1127 18:47:56.191383  3435 net.cpp:396] inception_4d/relu_3x3_reduce -> inception_4d/3x3_reduce (in-place)
I1127 18:47:56.191390  3435 net.cpp:144] Setting up inception_4d/relu_3x3_reduce
I1127 18:47:56.191395  3435 net.cpp:151] Top shape: 2 144 38 38 (415872)
I1127 18:47:56.191400  3435 net.cpp:159] Memory required for data: 691781440
I1127 18:47:56.191403  3435 layer_factory.hpp:77] Creating layer inception_4d/3x3
I1127 18:47:56.191411  3435 net.cpp:94] Creating Layer inception_4d/3x3
I1127 18:47:56.191416  3435 net.cpp:435] inception_4d/3x3 <- inception_4d/3x3_reduce
I1127 18:47:56.191421  3435 net.cpp:409] inception_4d/3x3 -> inception_4d/3x3
I1127 18:47:56.194778  3435 net.cpp:144] Setting up inception_4d/3x3
I1127 18:47:56.194790  3435 net.cpp:151] Top shape: 2 288 38 38 (831744)
I1127 18:47:56.194794  3435 net.cpp:159] Memory required for data: 695108416
I1127 18:47:56.194802  3435 layer_factory.hpp:77] Creating layer inception_4d/relu_3x3
I1127 18:47:56.194808  3435 net.cpp:94] Creating Layer inception_4d/relu_3x3
I1127 18:47:56.194813  3435 net.cpp:435] inception_4d/relu_3x3 <- inception_4d/3x3
I1127 18:47:56.194818  3435 net.cpp:396] inception_4d/relu_3x3 -> inception_4d/3x3 (in-place)
I1127 18:47:56.194825  3435 net.cpp:144] Setting up inception_4d/relu_3x3
I1127 18:47:56.194830  3435 net.cpp:151] Top shape: 2 288 38 38 (831744)
I1127 18:47:56.194844  3435 net.cpp:159] Memory required for data: 698435392
I1127 18:47:56.194847  3435 layer_factory.hpp:77] Creating layer inception_4d/5x5_reduce
I1127 18:47:56.194855  3435 net.cpp:94] Creating Layer inception_4d/5x5_reduce
I1127 18:47:56.194860  3435 net.cpp:435] inception_4d/5x5_reduce <- inception_4c/output_inception_4c/output_0_split_2
I1127 18:47:56.194866  3435 net.cpp:409] inception_4d/5x5_reduce -> inception_4d/5x5_reduce
I1127 18:47:56.195250  3435 net.cpp:144] Setting up inception_4d/5x5_reduce
I1127 18:47:56.195257  3435 net.cpp:151] Top shape: 2 32 38 38 (92416)
I1127 18:47:56.195261  3435 net.cpp:159] Memory required for data: 698805056
I1127 18:47:56.195268  3435 layer_factory.hpp:77] Creating layer inception_4d/relu_5x5_reduce
I1127 18:47:56.195274  3435 net.cpp:94] Creating Layer inception_4d/relu_5x5_reduce
I1127 18:47:56.195278  3435 net.cpp:435] inception_4d/relu_5x5_reduce <- inception_4d/5x5_reduce
I1127 18:47:56.195283  3435 net.cpp:396] inception_4d/relu_5x5_reduce -> inception_4d/5x5_reduce (in-place)
I1127 18:47:56.195291  3435 net.cpp:144] Setting up inception_4d/relu_5x5_reduce
I1127 18:47:56.195296  3435 net.cpp:151] Top shape: 2 32 38 38 (92416)
I1127 18:47:56.195299  3435 net.cpp:159] Memory required for data: 699174720
I1127 18:47:56.195303  3435 layer_factory.hpp:77] Creating layer inception_4d/5x5
I1127 18:47:56.195312  3435 net.cpp:94] Creating Layer inception_4d/5x5
I1127 18:47:56.195315  3435 net.cpp:435] inception_4d/5x5 <- inception_4d/5x5_reduce
I1127 18:47:56.195320  3435 net.cpp:409] inception_4d/5x5 -> inception_4d/5x5
I1127 18:47:56.196002  3435 net.cpp:144] Setting up inception_4d/5x5
I1127 18:47:56.196009  3435 net.cpp:151] Top shape: 2 64 38 38 (184832)
I1127 18:47:56.196013  3435 net.cpp:159] Memory required for data: 699914048
I1127 18:47:56.196020  3435 layer_factory.hpp:77] Creating layer inception_4d/relu_5x5
I1127 18:47:56.196027  3435 net.cpp:94] Creating Layer inception_4d/relu_5x5
I1127 18:47:56.196030  3435 net.cpp:435] inception_4d/relu_5x5 <- inception_4d/5x5
I1127 18:47:56.196036  3435 net.cpp:396] inception_4d/relu_5x5 -> inception_4d/5x5 (in-place)
I1127 18:47:56.196043  3435 net.cpp:144] Setting up inception_4d/relu_5x5
I1127 18:47:56.196048  3435 net.cpp:151] Top shape: 2 64 38 38 (184832)
I1127 18:47:56.196051  3435 net.cpp:159] Memory required for data: 700653376
I1127 18:47:56.196055  3435 layer_factory.hpp:77] Creating layer inception_4d/pool
I1127 18:47:56.196061  3435 net.cpp:94] Creating Layer inception_4d/pool
I1127 18:47:56.196065  3435 net.cpp:435] inception_4d/pool <- inception_4c/output_inception_4c/output_0_split_3
I1127 18:47:56.196071  3435 net.cpp:409] inception_4d/pool -> inception_4d/pool
I1127 18:47:56.196110  3435 net.cpp:144] Setting up inception_4d/pool
I1127 18:47:56.196116  3435 net.cpp:151] Top shape: 2 512 38 38 (1478656)
I1127 18:47:56.196120  3435 net.cpp:159] Memory required for data: 706568000
I1127 18:47:56.196125  3435 layer_factory.hpp:77] Creating layer inception_4d/pool_proj
I1127 18:47:56.196135  3435 net.cpp:94] Creating Layer inception_4d/pool_proj
I1127 18:47:56.196141  3435 net.cpp:435] inception_4d/pool_proj <- inception_4d/pool
I1127 18:47:56.196146  3435 net.cpp:409] inception_4d/pool_proj -> inception_4d/pool_proj
I1127 18:47:56.196694  3435 net.cpp:144] Setting up inception_4d/pool_proj
I1127 18:47:56.196702  3435 net.cpp:151] Top shape: 2 64 38 38 (184832)
I1127 18:47:56.196707  3435 net.cpp:159] Memory required for data: 707307328
I1127 18:47:56.196712  3435 layer_factory.hpp:77] Creating layer inception_4d/relu_pool_proj
I1127 18:47:56.196718  3435 net.cpp:94] Creating Layer inception_4d/relu_pool_proj
I1127 18:47:56.196722  3435 net.cpp:435] inception_4d/relu_pool_proj <- inception_4d/pool_proj
I1127 18:47:56.196727  3435 net.cpp:396] inception_4d/relu_pool_proj -> inception_4d/pool_proj (in-place)
I1127 18:47:56.196734  3435 net.cpp:144] Setting up inception_4d/relu_pool_proj
I1127 18:47:56.196739  3435 net.cpp:151] Top shape: 2 64 38 38 (184832)
I1127 18:47:56.196751  3435 net.cpp:159] Memory required for data: 708046656
I1127 18:47:56.196755  3435 layer_factory.hpp:77] Creating layer inception_4d/output
I1127 18:47:56.196761  3435 net.cpp:94] Creating Layer inception_4d/output
I1127 18:47:56.196765  3435 net.cpp:435] inception_4d/output <- inception_4d/1x1
I1127 18:47:56.196770  3435 net.cpp:435] inception_4d/output <- inception_4d/3x3
I1127 18:47:56.196774  3435 net.cpp:435] inception_4d/output <- inception_4d/5x5
I1127 18:47:56.196779  3435 net.cpp:435] inception_4d/output <- inception_4d/pool_proj
I1127 18:47:56.196784  3435 net.cpp:409] inception_4d/output -> inception_4d/output
I1127 18:47:56.196810  3435 net.cpp:144] Setting up inception_4d/output
I1127 18:47:56.196815  3435 net.cpp:151] Top shape: 2 528 38 38 (1524864)
I1127 18:47:56.196820  3435 net.cpp:159] Memory required for data: 714146112
I1127 18:47:56.196823  3435 layer_factory.hpp:77] Creating layer inception_4d/output_inception_4d/output_0_split
I1127 18:47:56.196830  3435 net.cpp:94] Creating Layer inception_4d/output_inception_4d/output_0_split
I1127 18:47:56.196833  3435 net.cpp:435] inception_4d/output_inception_4d/output_0_split <- inception_4d/output
I1127 18:47:56.196838  3435 net.cpp:409] inception_4d/output_inception_4d/output_0_split -> inception_4d/output_inception_4d/output_0_split_0
I1127 18:47:56.196846  3435 net.cpp:409] inception_4d/output_inception_4d/output_0_split -> inception_4d/output_inception_4d/output_0_split_1
I1127 18:47:56.196852  3435 net.cpp:409] inception_4d/output_inception_4d/output_0_split -> inception_4d/output_inception_4d/output_0_split_2
I1127 18:47:56.196858  3435 net.cpp:409] inception_4d/output_inception_4d/output_0_split -> inception_4d/output_inception_4d/output_0_split_3
I1127 18:47:56.196920  3435 net.cpp:144] Setting up inception_4d/output_inception_4d/output_0_split
I1127 18:47:56.196926  3435 net.cpp:151] Top shape: 2 528 38 38 (1524864)
I1127 18:47:56.196931  3435 net.cpp:151] Top shape: 2 528 38 38 (1524864)
I1127 18:47:56.196936  3435 net.cpp:151] Top shape: 2 528 38 38 (1524864)
I1127 18:47:56.196940  3435 net.cpp:151] Top shape: 2 528 38 38 (1524864)
I1127 18:47:56.196944  3435 net.cpp:159] Memory required for data: 738543936
I1127 18:47:56.196949  3435 layer_factory.hpp:77] Creating layer inception_4e/1x1
I1127 18:47:56.196955  3435 net.cpp:94] Creating Layer inception_4e/1x1
I1127 18:47:56.196959  3435 net.cpp:435] inception_4e/1x1 <- inception_4d/output_inception_4d/output_0_split_0
I1127 18:47:56.196966  3435 net.cpp:409] inception_4e/1x1 -> inception_4e/1x1
I1127 18:47:56.198477  3435 net.cpp:144] Setting up inception_4e/1x1
I1127 18:47:56.198488  3435 net.cpp:151] Top shape: 2 256 38 38 (739328)
I1127 18:47:56.198493  3435 net.cpp:159] Memory required for data: 741501248
I1127 18:47:56.198498  3435 layer_factory.hpp:77] Creating layer inception_4e/relu_1x1
I1127 18:47:56.198504  3435 net.cpp:94] Creating Layer inception_4e/relu_1x1
I1127 18:47:56.198508  3435 net.cpp:435] inception_4e/relu_1x1 <- inception_4e/1x1
I1127 18:47:56.198513  3435 net.cpp:396] inception_4e/relu_1x1 -> inception_4e/1x1 (in-place)
I1127 18:47:56.198521  3435 net.cpp:144] Setting up inception_4e/relu_1x1
I1127 18:47:56.198526  3435 net.cpp:151] Top shape: 2 256 38 38 (739328)
I1127 18:47:56.198529  3435 net.cpp:159] Memory required for data: 744458560
I1127 18:47:56.198532  3435 layer_factory.hpp:77] Creating layer inception_4e/3x3_reduce
I1127 18:47:56.198539  3435 net.cpp:94] Creating Layer inception_4e/3x3_reduce
I1127 18:47:56.198544  3435 net.cpp:435] inception_4e/3x3_reduce <- inception_4d/output_inception_4d/output_0_split_1
I1127 18:47:56.198549  3435 net.cpp:409] inception_4e/3x3_reduce -> inception_4e/3x3_reduce
I1127 18:47:56.199389  3435 net.cpp:144] Setting up inception_4e/3x3_reduce
I1127 18:47:56.199396  3435 net.cpp:151] Top shape: 2 160 38 38 (462080)
I1127 18:47:56.199399  3435 net.cpp:159] Memory required for data: 746306880
I1127 18:47:56.199405  3435 layer_factory.hpp:77] Creating layer inception_4e/relu_3x3_reduce
I1127 18:47:56.199409  3435 net.cpp:94] Creating Layer inception_4e/relu_3x3_reduce
I1127 18:47:56.199421  3435 net.cpp:435] inception_4e/relu_3x3_reduce <- inception_4e/3x3_reduce
I1127 18:47:56.199427  3435 net.cpp:396] inception_4e/relu_3x3_reduce -> inception_4e/3x3_reduce (in-place)
I1127 18:47:56.199434  3435 net.cpp:144] Setting up inception_4e/relu_3x3_reduce
I1127 18:47:56.199437  3435 net.cpp:151] Top shape: 2 160 38 38 (462080)
I1127 18:47:56.199440  3435 net.cpp:159] Memory required for data: 748155200
I1127 18:47:56.199445  3435 layer_factory.hpp:77] Creating layer inception_4e/3x3
I1127 18:47:56.199452  3435 net.cpp:94] Creating Layer inception_4e/3x3
I1127 18:47:56.199456  3435 net.cpp:435] inception_4e/3x3 <- inception_4e/3x3_reduce
I1127 18:47:56.199461  3435 net.cpp:409] inception_4e/3x3 -> inception_4e/3x3
I1127 18:47:56.202402  3435 net.cpp:144] Setting up inception_4e/3x3
I1127 18:47:56.202412  3435 net.cpp:151] Top shape: 2 320 38 38 (924160)
I1127 18:47:56.202415  3435 net.cpp:159] Memory required for data: 751851840
I1127 18:47:56.202419  3435 layer_factory.hpp:77] Creating layer inception_4e/relu_3x3
I1127 18:47:56.202425  3435 net.cpp:94] Creating Layer inception_4e/relu_3x3
I1127 18:47:56.202428  3435 net.cpp:435] inception_4e/relu_3x3 <- inception_4e/3x3
I1127 18:47:56.202432  3435 net.cpp:396] inception_4e/relu_3x3 -> inception_4e/3x3 (in-place)
I1127 18:47:56.202437  3435 net.cpp:144] Setting up inception_4e/relu_3x3
I1127 18:47:56.202441  3435 net.cpp:151] Top shape: 2 320 38 38 (924160)
I1127 18:47:56.202443  3435 net.cpp:159] Memory required for data: 755548480
I1127 18:47:56.202445  3435 layer_factory.hpp:77] Creating layer inception_4e/5x5_reduce
I1127 18:47:56.202452  3435 net.cpp:94] Creating Layer inception_4e/5x5_reduce
I1127 18:47:56.202455  3435 net.cpp:435] inception_4e/5x5_reduce <- inception_4d/output_inception_4d/output_0_split_2
I1127 18:47:56.202461  3435 net.cpp:409] inception_4e/5x5_reduce -> inception_4e/5x5_reduce
I1127 18:47:56.202740  3435 net.cpp:144] Setting up inception_4e/5x5_reduce
I1127 18:47:56.202745  3435 net.cpp:151] Top shape: 2 32 38 38 (92416)
I1127 18:47:56.202749  3435 net.cpp:159] Memory required for data: 755918144
I1127 18:47:56.202752  3435 layer_factory.hpp:77] Creating layer inception_4e/relu_5x5_reduce
I1127 18:47:56.202757  3435 net.cpp:94] Creating Layer inception_4e/relu_5x5_reduce
I1127 18:47:56.202760  3435 net.cpp:435] inception_4e/relu_5x5_reduce <- inception_4e/5x5_reduce
I1127 18:47:56.202764  3435 net.cpp:396] inception_4e/relu_5x5_reduce -> inception_4e/5x5_reduce (in-place)
I1127 18:47:56.202769  3435 net.cpp:144] Setting up inception_4e/relu_5x5_reduce
I1127 18:47:56.202772  3435 net.cpp:151] Top shape: 2 32 38 38 (92416)
I1127 18:47:56.202775  3435 net.cpp:159] Memory required for data: 756287808
I1127 18:47:56.202777  3435 layer_factory.hpp:77] Creating layer inception_4e/5x5
I1127 18:47:56.202783  3435 net.cpp:94] Creating Layer inception_4e/5x5
I1127 18:47:56.202785  3435 net.cpp:435] inception_4e/5x5 <- inception_4e/5x5_reduce
I1127 18:47:56.202790  3435 net.cpp:409] inception_4e/5x5 -> inception_4e/5x5
I1127 18:47:56.203804  3435 net.cpp:144] Setting up inception_4e/5x5
I1127 18:47:56.203812  3435 net.cpp:151] Top shape: 2 128 38 38 (369664)
I1127 18:47:56.203814  3435 net.cpp:159] Memory required for data: 757766464
I1127 18:47:56.203819  3435 layer_factory.hpp:77] Creating layer inception_4e/relu_5x5
I1127 18:47:56.203824  3435 net.cpp:94] Creating Layer inception_4e/relu_5x5
I1127 18:47:56.203827  3435 net.cpp:435] inception_4e/relu_5x5 <- inception_4e/5x5
I1127 18:47:56.203831  3435 net.cpp:396] inception_4e/relu_5x5 -> inception_4e/5x5 (in-place)
I1127 18:47:56.203836  3435 net.cpp:144] Setting up inception_4e/relu_5x5
I1127 18:47:56.203840  3435 net.cpp:151] Top shape: 2 128 38 38 (369664)
I1127 18:47:56.203841  3435 net.cpp:159] Memory required for data: 759245120
I1127 18:47:56.203845  3435 layer_factory.hpp:77] Creating layer inception_4e/pool
I1127 18:47:56.203860  3435 net.cpp:94] Creating Layer inception_4e/pool
I1127 18:47:56.203862  3435 net.cpp:435] inception_4e/pool <- inception_4d/output_inception_4d/output_0_split_3
I1127 18:47:56.203874  3435 net.cpp:409] inception_4e/pool -> inception_4e/pool
I1127 18:47:56.203907  3435 net.cpp:144] Setting up inception_4e/pool
I1127 18:47:56.203912  3435 net.cpp:151] Top shape: 2 528 38 38 (1524864)
I1127 18:47:56.203914  3435 net.cpp:159] Memory required for data: 765344576
I1127 18:47:56.203917  3435 layer_factory.hpp:77] Creating layer inception_4e/pool_proj
I1127 18:47:56.203923  3435 net.cpp:94] Creating Layer inception_4e/pool_proj
I1127 18:47:56.203927  3435 net.cpp:435] inception_4e/pool_proj <- inception_4e/pool
I1127 18:47:56.203932  3435 net.cpp:409] inception_4e/pool_proj -> inception_4e/pool_proj
I1127 18:47:56.204428  3435 net.cpp:144] Setting up inception_4e/pool_proj
I1127 18:47:56.204434  3435 net.cpp:151] Top shape: 2 128 38 38 (369664)
I1127 18:47:56.204437  3435 net.cpp:159] Memory required for data: 766823232
I1127 18:47:56.204442  3435 layer_factory.hpp:77] Creating layer inception_4e/relu_pool_proj
I1127 18:47:56.204447  3435 net.cpp:94] Creating Layer inception_4e/relu_pool_proj
I1127 18:47:56.204449  3435 net.cpp:435] inception_4e/relu_pool_proj <- inception_4e/pool_proj
I1127 18:47:56.204453  3435 net.cpp:396] inception_4e/relu_pool_proj -> inception_4e/pool_proj (in-place)
I1127 18:47:56.204457  3435 net.cpp:144] Setting up inception_4e/relu_pool_proj
I1127 18:47:56.204462  3435 net.cpp:151] Top shape: 2 128 38 38 (369664)
I1127 18:47:56.204463  3435 net.cpp:159] Memory required for data: 768301888
I1127 18:47:56.204465  3435 layer_factory.hpp:77] Creating layer inception_4e/output
I1127 18:47:56.204469  3435 net.cpp:94] Creating Layer inception_4e/output
I1127 18:47:56.204471  3435 net.cpp:435] inception_4e/output <- inception_4e/1x1
I1127 18:47:56.204475  3435 net.cpp:435] inception_4e/output <- inception_4e/3x3
I1127 18:47:56.204478  3435 net.cpp:435] inception_4e/output <- inception_4e/5x5
I1127 18:47:56.204481  3435 net.cpp:435] inception_4e/output <- inception_4e/pool_proj
I1127 18:47:56.204485  3435 net.cpp:409] inception_4e/output -> inception_4e/output
I1127 18:47:56.204504  3435 net.cpp:144] Setting up inception_4e/output
I1127 18:47:56.204509  3435 net.cpp:151] Top shape: 2 832 38 38 (2402816)
I1127 18:47:56.204510  3435 net.cpp:159] Memory required for data: 777913152
I1127 18:47:56.204514  3435 layer_factory.hpp:77] Creating layer inception_4e/output_inception_4e/output_0_split
I1127 18:47:56.204516  3435 net.cpp:94] Creating Layer inception_4e/output_inception_4e/output_0_split
I1127 18:47:56.204519  3435 net.cpp:435] inception_4e/output_inception_4e/output_0_split <- inception_4e/output
I1127 18:47:56.204524  3435 net.cpp:409] inception_4e/output_inception_4e/output_0_split -> inception_4e/output_inception_4e/output_0_split_0
I1127 18:47:56.204527  3435 net.cpp:409] inception_4e/output_inception_4e/output_0_split -> inception_4e/output_inception_4e/output_0_split_1
I1127 18:47:56.204532  3435 net.cpp:409] inception_4e/output_inception_4e/output_0_split -> inception_4e/output_inception_4e/output_0_split_2
I1127 18:47:56.204537  3435 net.cpp:409] inception_4e/output_inception_4e/output_0_split -> inception_4e/output_inception_4e/output_0_split_3
I1127 18:47:56.204586  3435 net.cpp:144] Setting up inception_4e/output_inception_4e/output_0_split
I1127 18:47:56.204589  3435 net.cpp:151] Top shape: 2 832 38 38 (2402816)
I1127 18:47:56.204592  3435 net.cpp:151] Top shape: 2 832 38 38 (2402816)
I1127 18:47:56.204596  3435 net.cpp:151] Top shape: 2 832 38 38 (2402816)
I1127 18:47:56.204598  3435 net.cpp:151] Top shape: 2 832 38 38 (2402816)
I1127 18:47:56.204601  3435 net.cpp:159] Memory required for data: 816358208
I1127 18:47:56.204603  3435 layer_factory.hpp:77] Creating layer inception_5a/1x1
I1127 18:47:56.204609  3435 net.cpp:94] Creating Layer inception_5a/1x1
I1127 18:47:56.204612  3435 net.cpp:435] inception_5a/1x1 <- inception_4e/output_inception_4e/output_0_split_0
I1127 18:47:56.204617  3435 net.cpp:409] inception_5a/1x1 -> inception_5a/1x1
I1127 18:47:56.206115  3435 net.cpp:144] Setting up inception_5a/1x1
I1127 18:47:56.206131  3435 net.cpp:151] Top shape: 2 256 38 38 (739328)
I1127 18:47:56.206135  3435 net.cpp:159] Memory required for data: 819315520
I1127 18:47:56.206140  3435 layer_factory.hpp:77] Creating layer inception_5a/relu_1x1
I1127 18:47:56.206145  3435 net.cpp:94] Creating Layer inception_5a/relu_1x1
I1127 18:47:56.206147  3435 net.cpp:435] inception_5a/relu_1x1 <- inception_5a/1x1
I1127 18:47:56.206151  3435 net.cpp:396] inception_5a/relu_1x1 -> inception_5a/1x1 (in-place)
I1127 18:47:56.206157  3435 net.cpp:144] Setting up inception_5a/relu_1x1
I1127 18:47:56.206161  3435 net.cpp:151] Top shape: 2 256 38 38 (739328)
I1127 18:47:56.206162  3435 net.cpp:159] Memory required for data: 822272832
I1127 18:47:56.206166  3435 layer_factory.hpp:77] Creating layer inception_5a/3x3_reduce
I1127 18:47:56.206171  3435 net.cpp:94] Creating Layer inception_5a/3x3_reduce
I1127 18:47:56.206174  3435 net.cpp:435] inception_5a/3x3_reduce <- inception_4e/output_inception_4e/output_0_split_1
I1127 18:47:56.206179  3435 net.cpp:409] inception_5a/3x3_reduce -> inception_5a/3x3_reduce
I1127 18:47:56.207321  3435 net.cpp:144] Setting up inception_5a/3x3_reduce
I1127 18:47:56.207329  3435 net.cpp:151] Top shape: 2 160 38 38 (462080)
I1127 18:47:56.207332  3435 net.cpp:159] Memory required for data: 824121152
I1127 18:47:56.207336  3435 layer_factory.hpp:77] Creating layer inception_5a/relu_3x3_reduce
I1127 18:47:56.207341  3435 net.cpp:94] Creating Layer inception_5a/relu_3x3_reduce
I1127 18:47:56.207345  3435 net.cpp:435] inception_5a/relu_3x3_reduce <- inception_5a/3x3_reduce
I1127 18:47:56.207348  3435 net.cpp:396] inception_5a/relu_3x3_reduce -> inception_5a/3x3_reduce (in-place)
I1127 18:47:56.207353  3435 net.cpp:144] Setting up inception_5a/relu_3x3_reduce
I1127 18:47:56.207356  3435 net.cpp:151] Top shape: 2 160 38 38 (462080)
I1127 18:47:56.207358  3435 net.cpp:159] Memory required for data: 825969472
I1127 18:47:56.207361  3435 layer_factory.hpp:77] Creating layer inception_5a/3x3
I1127 18:47:56.207367  3435 net.cpp:94] Creating Layer inception_5a/3x3
I1127 18:47:56.207370  3435 net.cpp:435] inception_5a/3x3 <- inception_5a/3x3_reduce
I1127 18:47:56.207375  3435 net.cpp:409] inception_5a/3x3 -> inception_5a/3x3
I1127 18:47:56.210113  3435 net.cpp:144] Setting up inception_5a/3x3
I1127 18:47:56.210120  3435 net.cpp:151] Top shape: 2 320 38 38 (924160)
I1127 18:47:56.210124  3435 net.cpp:159] Memory required for data: 829666112
I1127 18:47:56.210127  3435 layer_factory.hpp:77] Creating layer inception_5a/relu_3x3
I1127 18:47:56.210132  3435 net.cpp:94] Creating Layer inception_5a/relu_3x3
I1127 18:47:56.210135  3435 net.cpp:435] inception_5a/relu_3x3 <- inception_5a/3x3
I1127 18:47:56.210139  3435 net.cpp:396] inception_5a/relu_3x3 -> inception_5a/3x3 (in-place)
I1127 18:47:56.210144  3435 net.cpp:144] Setting up inception_5a/relu_3x3
I1127 18:47:56.210149  3435 net.cpp:151] Top shape: 2 320 38 38 (924160)
I1127 18:47:56.210150  3435 net.cpp:159] Memory required for data: 833362752
I1127 18:47:56.210152  3435 layer_factory.hpp:77] Creating layer inception_5a/5x5_reduce
I1127 18:47:56.210160  3435 net.cpp:94] Creating Layer inception_5a/5x5_reduce
I1127 18:47:56.210162  3435 net.cpp:435] inception_5a/5x5_reduce <- inception_4e/output_inception_4e/output_0_split_2
I1127 18:47:56.210167  3435 net.cpp:409] inception_5a/5x5_reduce -> inception_5a/5x5_reduce
I1127 18:47:56.210484  3435 net.cpp:144] Setting up inception_5a/5x5_reduce
I1127 18:47:56.210490  3435 net.cpp:151] Top shape: 2 32 38 38 (92416)
I1127 18:47:56.210492  3435 net.cpp:159] Memory required for data: 833732416
I1127 18:47:56.210496  3435 layer_factory.hpp:77] Creating layer inception_5a/relu_5x5_reduce
I1127 18:47:56.210502  3435 net.cpp:94] Creating Layer inception_5a/relu_5x5_reduce
I1127 18:47:56.210505  3435 net.cpp:435] inception_5a/relu_5x5_reduce <- inception_5a/5x5_reduce
I1127 18:47:56.210508  3435 net.cpp:396] inception_5a/relu_5x5_reduce -> inception_5a/5x5_reduce (in-place)
I1127 18:47:56.210513  3435 net.cpp:144] Setting up inception_5a/relu_5x5_reduce
I1127 18:47:56.210523  3435 net.cpp:151] Top shape: 2 32 38 38 (92416)
I1127 18:47:56.210526  3435 net.cpp:159] Memory required for data: 834102080
I1127 18:47:56.210528  3435 layer_factory.hpp:77] Creating layer inception_5a/5x5
I1127 18:47:56.210535  3435 net.cpp:94] Creating Layer inception_5a/5x5
I1127 18:47:56.210537  3435 net.cpp:435] inception_5a/5x5 <- inception_5a/5x5_reduce
I1127 18:47:56.210542  3435 net.cpp:409] inception_5a/5x5 -> inception_5a/5x5
I1127 18:47:56.211182  3435 net.cpp:144] Setting up inception_5a/5x5
I1127 18:47:56.211187  3435 net.cpp:151] Top shape: 2 128 38 38 (369664)
I1127 18:47:56.211190  3435 net.cpp:159] Memory required for data: 835580736
I1127 18:47:56.211194  3435 layer_factory.hpp:77] Creating layer inception_5a/relu_5x5
I1127 18:47:56.211197  3435 net.cpp:94] Creating Layer inception_5a/relu_5x5
I1127 18:47:56.211200  3435 net.cpp:435] inception_5a/relu_5x5 <- inception_5a/5x5
I1127 18:47:56.211205  3435 net.cpp:396] inception_5a/relu_5x5 -> inception_5a/5x5 (in-place)
I1127 18:47:56.211208  3435 net.cpp:144] Setting up inception_5a/relu_5x5
I1127 18:47:56.211211  3435 net.cpp:151] Top shape: 2 128 38 38 (369664)
I1127 18:47:56.211215  3435 net.cpp:159] Memory required for data: 837059392
I1127 18:47:56.211216  3435 layer_factory.hpp:77] Creating layer inception_5a/pool
I1127 18:47:56.211220  3435 net.cpp:94] Creating Layer inception_5a/pool
I1127 18:47:56.211222  3435 net.cpp:435] inception_5a/pool <- inception_4e/output_inception_4e/output_0_split_3
I1127 18:47:56.211227  3435 net.cpp:409] inception_5a/pool -> inception_5a/pool
I1127 18:47:56.211257  3435 net.cpp:144] Setting up inception_5a/pool
I1127 18:47:56.211262  3435 net.cpp:151] Top shape: 2 832 38 38 (2402816)
I1127 18:47:56.211264  3435 net.cpp:159] Memory required for data: 846670656
I1127 18:47:56.211266  3435 layer_factory.hpp:77] Creating layer inception_5a/pool_proj
I1127 18:47:56.211272  3435 net.cpp:94] Creating Layer inception_5a/pool_proj
I1127 18:47:56.211275  3435 net.cpp:435] inception_5a/pool_proj <- inception_5a/pool
I1127 18:47:56.211279  3435 net.cpp:409] inception_5a/pool_proj -> inception_5a/pool_proj
I1127 18:47:56.212374  3435 net.cpp:144] Setting up inception_5a/pool_proj
I1127 18:47:56.212383  3435 net.cpp:151] Top shape: 2 128 38 38 (369664)
I1127 18:47:56.212385  3435 net.cpp:159] Memory required for data: 848149312
I1127 18:47:56.212390  3435 layer_factory.hpp:77] Creating layer inception_5a/relu_pool_proj
I1127 18:47:56.212394  3435 net.cpp:94] Creating Layer inception_5a/relu_pool_proj
I1127 18:47:56.212398  3435 net.cpp:435] inception_5a/relu_pool_proj <- inception_5a/pool_proj
I1127 18:47:56.212401  3435 net.cpp:396] inception_5a/relu_pool_proj -> inception_5a/pool_proj (in-place)
I1127 18:47:56.212406  3435 net.cpp:144] Setting up inception_5a/relu_pool_proj
I1127 18:47:56.212409  3435 net.cpp:151] Top shape: 2 128 38 38 (369664)
I1127 18:47:56.212412  3435 net.cpp:159] Memory required for data: 849627968
I1127 18:47:56.212414  3435 layer_factory.hpp:77] Creating layer inception_5a/output
I1127 18:47:56.212419  3435 net.cpp:94] Creating Layer inception_5a/output
I1127 18:47:56.212421  3435 net.cpp:435] inception_5a/output <- inception_5a/1x1
I1127 18:47:56.212424  3435 net.cpp:435] inception_5a/output <- inception_5a/3x3
I1127 18:47:56.212427  3435 net.cpp:435] inception_5a/output <- inception_5a/5x5
I1127 18:47:56.212430  3435 net.cpp:435] inception_5a/output <- inception_5a/pool_proj
I1127 18:47:56.212433  3435 net.cpp:409] inception_5a/output -> inception_5a/output
I1127 18:47:56.213181  3435 net.cpp:144] Setting up inception_5a/output
I1127 18:47:56.213207  3435 net.cpp:151] Top shape: 2 832 38 38 (2402816)
I1127 18:47:56.213212  3435 net.cpp:159] Memory required for data: 859239232
I1127 18:47:56.213217  3435 layer_factory.hpp:77] Creating layer inception_5a/output_inception_5a/output_0_split
I1127 18:47:56.213223  3435 net.cpp:94] Creating Layer inception_5a/output_inception_5a/output_0_split
I1127 18:47:56.213227  3435 net.cpp:435] inception_5a/output_inception_5a/output_0_split <- inception_5a/output
I1127 18:47:56.213244  3435 net.cpp:409] inception_5a/output_inception_5a/output_0_split -> inception_5a/output_inception_5a/output_0_split_0
I1127 18:47:56.213253  3435 net.cpp:409] inception_5a/output_inception_5a/output_0_split -> inception_5a/output_inception_5a/output_0_split_1
I1127 18:47:56.213260  3435 net.cpp:409] inception_5a/output_inception_5a/output_0_split -> inception_5a/output_inception_5a/output_0_split_2
I1127 18:47:56.213268  3435 net.cpp:409] inception_5a/output_inception_5a/output_0_split -> inception_5a/output_inception_5a/output_0_split_3
I1127 18:47:56.213379  3435 net.cpp:144] Setting up inception_5a/output_inception_5a/output_0_split
I1127 18:47:56.213387  3435 net.cpp:151] Top shape: 2 832 38 38 (2402816)
I1127 18:47:56.213392  3435 net.cpp:151] Top shape: 2 832 38 38 (2402816)
I1127 18:47:56.213397  3435 net.cpp:151] Top shape: 2 832 38 38 (2402816)
I1127 18:47:56.213402  3435 net.cpp:151] Top shape: 2 832 38 38 (2402816)
I1127 18:47:56.213405  3435 net.cpp:159] Memory required for data: 897684288
I1127 18:47:56.213410  3435 layer_factory.hpp:77] Creating layer inception_5b/1x1
I1127 18:47:56.213423  3435 net.cpp:94] Creating Layer inception_5b/1x1
I1127 18:47:56.213428  3435 net.cpp:435] inception_5b/1x1 <- inception_5a/output_inception_5a/output_0_split_0
I1127 18:47:56.213435  3435 net.cpp:409] inception_5b/1x1 -> inception_5b/1x1
I1127 18:47:56.216532  3435 net.cpp:144] Setting up inception_5b/1x1
I1127 18:47:56.216544  3435 net.cpp:151] Top shape: 2 384 38 38 (1108992)
I1127 18:47:56.216548  3435 net.cpp:159] Memory required for data: 902120256
I1127 18:47:56.216557  3435 layer_factory.hpp:77] Creating layer inception_5b/relu_1x1
I1127 18:47:56.216563  3435 net.cpp:94] Creating Layer inception_5b/relu_1x1
I1127 18:47:56.216567  3435 net.cpp:435] inception_5b/relu_1x1 <- inception_5b/1x1
I1127 18:47:56.216574  3435 net.cpp:396] inception_5b/relu_1x1 -> inception_5b/1x1 (in-place)
I1127 18:47:56.216583  3435 net.cpp:144] Setting up inception_5b/relu_1x1
I1127 18:47:56.216588  3435 net.cpp:151] Top shape: 2 384 38 38 (1108992)
I1127 18:47:56.216593  3435 net.cpp:159] Memory required for data: 906556224
I1127 18:47:56.216596  3435 layer_factory.hpp:77] Creating layer inception_5b/3x3_reduce
I1127 18:47:56.216605  3435 net.cpp:94] Creating Layer inception_5b/3x3_reduce
I1127 18:47:56.216609  3435 net.cpp:435] inception_5b/3x3_reduce <- inception_5a/output_inception_5a/output_0_split_1
I1127 18:47:56.216617  3435 net.cpp:409] inception_5b/3x3_reduce -> inception_5b/3x3_reduce
I1127 18:47:56.218504  3435 net.cpp:144] Setting up inception_5b/3x3_reduce
I1127 18:47:56.218515  3435 net.cpp:151] Top shape: 2 192 38 38 (554496)
I1127 18:47:56.218520  3435 net.cpp:159] Memory required for data: 908774208
I1127 18:47:56.218528  3435 layer_factory.hpp:77] Creating layer inception_5b/relu_3x3_reduce
I1127 18:47:56.218534  3435 net.cpp:94] Creating Layer inception_5b/relu_3x3_reduce
I1127 18:47:56.218538  3435 net.cpp:435] inception_5b/relu_3x3_reduce <- inception_5b/3x3_reduce
I1127 18:47:56.218546  3435 net.cpp:396] inception_5b/relu_3x3_reduce -> inception_5b/3x3_reduce (in-place)
I1127 18:47:56.218554  3435 net.cpp:144] Setting up inception_5b/relu_3x3_reduce
I1127 18:47:56.218559  3435 net.cpp:151] Top shape: 2 192 38 38 (554496)
I1127 18:47:56.218564  3435 net.cpp:159] Memory required for data: 910992192
I1127 18:47:56.218566  3435 layer_factory.hpp:77] Creating layer inception_5b/3x3
I1127 18:47:56.218576  3435 net.cpp:94] Creating Layer inception_5b/3x3
I1127 18:47:56.218581  3435 net.cpp:435] inception_5b/3x3 <- inception_5b/3x3_reduce
I1127 18:47:56.218587  3435 net.cpp:409] inception_5b/3x3 -> inception_5b/3x3
I1127 18:47:56.224906  3435 net.cpp:144] Setting up inception_5b/3x3
I1127 18:47:56.224923  3435 net.cpp:151] Top shape: 2 384 38 38 (1108992)
I1127 18:47:56.224928  3435 net.cpp:159] Memory required for data: 915428160
I1127 18:47:56.224937  3435 layer_factory.hpp:77] Creating layer inception_5b/relu_3x3
I1127 18:47:56.224946  3435 net.cpp:94] Creating Layer inception_5b/relu_3x3
I1127 18:47:56.224961  3435 net.cpp:435] inception_5b/relu_3x3 <- inception_5b/3x3
I1127 18:47:56.224968  3435 net.cpp:396] inception_5b/relu_3x3 -> inception_5b/3x3 (in-place)
I1127 18:47:56.224977  3435 net.cpp:144] Setting up inception_5b/relu_3x3
I1127 18:47:56.224982  3435 net.cpp:151] Top shape: 2 384 38 38 (1108992)
I1127 18:47:56.224987  3435 net.cpp:159] Memory required for data: 919864128
I1127 18:47:56.224990  3435 layer_factory.hpp:77] Creating layer inception_5b/5x5_reduce
I1127 18:47:56.225000  3435 net.cpp:94] Creating Layer inception_5b/5x5_reduce
I1127 18:47:56.225004  3435 net.cpp:435] inception_5b/5x5_reduce <- inception_5a/output_inception_5a/output_0_split_2
I1127 18:47:56.225024  3435 net.cpp:409] inception_5b/5x5_reduce -> inception_5b/5x5_reduce
I1127 18:47:56.225989  3435 net.cpp:144] Setting up inception_5b/5x5_reduce
I1127 18:47:56.226001  3435 net.cpp:151] Top shape: 2 48 38 38 (138624)
I1127 18:47:56.226004  3435 net.cpp:159] Memory required for data: 920418624
I1127 18:47:56.226011  3435 layer_factory.hpp:77] Creating layer inception_5b/relu_5x5_reduce
I1127 18:47:56.226018  3435 net.cpp:94] Creating Layer inception_5b/relu_5x5_reduce
I1127 18:47:56.226042  3435 net.cpp:435] inception_5b/relu_5x5_reduce <- inception_5b/5x5_reduce
I1127 18:47:56.226047  3435 net.cpp:396] inception_5b/relu_5x5_reduce -> inception_5b/5x5_reduce (in-place)
I1127 18:47:56.226055  3435 net.cpp:144] Setting up inception_5b/relu_5x5_reduce
I1127 18:47:56.226060  3435 net.cpp:151] Top shape: 2 48 38 38 (138624)
I1127 18:47:56.226080  3435 net.cpp:159] Memory required for data: 920973120
I1127 18:47:56.226083  3435 layer_factory.hpp:77] Creating layer inception_5b/5x5
I1127 18:47:56.226092  3435 net.cpp:94] Creating Layer inception_5b/5x5
I1127 18:47:56.226096  3435 net.cpp:435] inception_5b/5x5 <- inception_5b/5x5_reduce
I1127 18:47:56.226104  3435 net.cpp:409] inception_5b/5x5 -> inception_5b/5x5
I1127 18:47:56.227424  3435 net.cpp:144] Setting up inception_5b/5x5
I1127 18:47:56.227433  3435 net.cpp:151] Top shape: 2 128 38 38 (369664)
I1127 18:47:56.227437  3435 net.cpp:159] Memory required for data: 922451776
I1127 18:47:56.227443  3435 layer_factory.hpp:77] Creating layer inception_5b/relu_5x5
I1127 18:47:56.227450  3435 net.cpp:94] Creating Layer inception_5b/relu_5x5
I1127 18:47:56.227454  3435 net.cpp:435] inception_5b/relu_5x5 <- inception_5b/5x5
I1127 18:47:56.227461  3435 net.cpp:396] inception_5b/relu_5x5 -> inception_5b/5x5 (in-place)
I1127 18:47:56.227468  3435 net.cpp:144] Setting up inception_5b/relu_5x5
I1127 18:47:56.227473  3435 net.cpp:151] Top shape: 2 128 38 38 (369664)
I1127 18:47:56.227476  3435 net.cpp:159] Memory required for data: 923930432
I1127 18:47:56.227480  3435 layer_factory.hpp:77] Creating layer inception_5b/pool
I1127 18:47:56.227486  3435 net.cpp:94] Creating Layer inception_5b/pool
I1127 18:47:56.227491  3435 net.cpp:435] inception_5b/pool <- inception_5a/output_inception_5a/output_0_split_3
I1127 18:47:56.227497  3435 net.cpp:409] inception_5b/pool -> inception_5b/pool
I1127 18:47:56.227535  3435 net.cpp:144] Setting up inception_5b/pool
I1127 18:47:56.227540  3435 net.cpp:151] Top shape: 2 832 38 38 (2402816)
I1127 18:47:56.227545  3435 net.cpp:159] Memory required for data: 933541696
I1127 18:47:56.227547  3435 layer_factory.hpp:77] Creating layer inception_5b/pool_proj
I1127 18:47:56.227556  3435 net.cpp:94] Creating Layer inception_5b/pool_proj
I1127 18:47:56.227560  3435 net.cpp:435] inception_5b/pool_proj <- inception_5b/pool
I1127 18:47:56.227566  3435 net.cpp:409] inception_5b/pool_proj -> inception_5b/pool_proj
I1127 18:47:56.229018  3435 net.cpp:144] Setting up inception_5b/pool_proj
I1127 18:47:56.229028  3435 net.cpp:151] Top shape: 2 128 38 38 (369664)
I1127 18:47:56.229033  3435 net.cpp:159] Memory required for data: 935020352
I1127 18:47:56.229039  3435 layer_factory.hpp:77] Creating layer inception_5b/relu_pool_proj
I1127 18:47:56.229044  3435 net.cpp:94] Creating Layer inception_5b/relu_pool_proj
I1127 18:47:56.229049  3435 net.cpp:435] inception_5b/relu_pool_proj <- inception_5b/pool_proj
I1127 18:47:56.229063  3435 net.cpp:396] inception_5b/relu_pool_proj -> inception_5b/pool_proj (in-place)
I1127 18:47:56.229073  3435 net.cpp:144] Setting up inception_5b/relu_pool_proj
I1127 18:47:56.229076  3435 net.cpp:151] Top shape: 2 128 38 38 (369664)
I1127 18:47:56.229079  3435 net.cpp:159] Memory required for data: 936499008
I1127 18:47:56.229084  3435 layer_factory.hpp:77] Creating layer inception_5b/output
I1127 18:47:56.229089  3435 net.cpp:94] Creating Layer inception_5b/output
I1127 18:47:56.229094  3435 net.cpp:435] inception_5b/output <- inception_5b/1x1
I1127 18:47:56.229099  3435 net.cpp:435] inception_5b/output <- inception_5b/3x3
I1127 18:47:56.229102  3435 net.cpp:435] inception_5b/output <- inception_5b/5x5
I1127 18:47:56.229106  3435 net.cpp:435] inception_5b/output <- inception_5b/pool_proj
I1127 18:47:56.229111  3435 net.cpp:409] inception_5b/output -> inception_5b/output
I1127 18:47:56.229135  3435 net.cpp:144] Setting up inception_5b/output
I1127 18:47:56.229140  3435 net.cpp:151] Top shape: 2 1024 38 38 (2957312)
I1127 18:47:56.229142  3435 net.cpp:159] Memory required for data: 948328256
I1127 18:47:56.229146  3435 layer_factory.hpp:77] Creating layer pool5/drop_s1
I1127 18:47:56.229151  3435 net.cpp:94] Creating Layer pool5/drop_s1
I1127 18:47:56.229156  3435 net.cpp:435] pool5/drop_s1 <- inception_5b/output
I1127 18:47:56.229161  3435 net.cpp:409] pool5/drop_s1 -> pool5/drop_s1
I1127 18:47:56.229192  3435 net.cpp:144] Setting up pool5/drop_s1
I1127 18:47:56.229197  3435 net.cpp:151] Top shape: 2 1024 38 38 (2957312)
I1127 18:47:56.229202  3435 net.cpp:159] Memory required for data: 960157504
I1127 18:47:56.229204  3435 layer_factory.hpp:77] Creating layer pool5/drop_s1_pool5/drop_s1_0_split
I1127 18:47:56.229212  3435 net.cpp:94] Creating Layer pool5/drop_s1_pool5/drop_s1_0_split
I1127 18:47:56.229215  3435 net.cpp:435] pool5/drop_s1_pool5/drop_s1_0_split <- pool5/drop_s1
I1127 18:47:56.229220  3435 net.cpp:409] pool5/drop_s1_pool5/drop_s1_0_split -> pool5/drop_s1_pool5/drop_s1_0_split_0
I1127 18:47:56.229228  3435 net.cpp:409] pool5/drop_s1_pool5/drop_s1_0_split -> pool5/drop_s1_pool5/drop_s1_0_split_1
I1127 18:47:56.229254  3435 net.cpp:144] Setting up pool5/drop_s1_pool5/drop_s1_0_split
I1127 18:47:56.229259  3435 net.cpp:151] Top shape: 2 1024 38 38 (2957312)
I1127 18:47:56.229264  3435 net.cpp:151] Top shape: 2 1024 38 38 (2957312)
I1127 18:47:56.229266  3435 net.cpp:159] Memory required for data: 983816000
I1127 18:47:56.229270  3435 layer_factory.hpp:77] Creating layer cvg/classifier
I1127 18:47:56.229279  3435 net.cpp:94] Creating Layer cvg/classifier
I1127 18:47:56.229284  3435 net.cpp:435] cvg/classifier <- pool5/drop_s1_pool5/drop_s1_0_split_0
I1127 18:47:56.229290  3435 net.cpp:409] cvg/classifier -> cvg/classifier
I1127 18:47:56.229499  3435 net.cpp:144] Setting up cvg/classifier
I1127 18:47:56.229507  3435 net.cpp:151] Top shape: 2 1 38 38 (2888)
I1127 18:47:56.229511  3435 net.cpp:159] Memory required for data: 983827552
I1127 18:47:56.229516  3435 layer_factory.hpp:77] Creating layer coverage/sig
I1127 18:47:56.229522  3435 net.cpp:94] Creating Layer coverage/sig
I1127 18:47:56.229526  3435 net.cpp:435] coverage/sig <- cvg/classifier
I1127 18:47:56.229531  3435 net.cpp:409] coverage/sig -> coverage
I1127 18:47:56.229552  3435 net.cpp:144] Setting up coverage/sig
I1127 18:47:56.229557  3435 net.cpp:151] Top shape: 2 1 38 38 (2888)
I1127 18:47:56.229560  3435 net.cpp:159] Memory required for data: 983839104
I1127 18:47:56.229563  3435 layer_factory.hpp:77] Creating layer coverage_coverage/sig_0_split
I1127 18:47:56.229569  3435 net.cpp:94] Creating Layer coverage_coverage/sig_0_split
I1127 18:47:56.229573  3435 net.cpp:435] coverage_coverage/sig_0_split <- coverage
I1127 18:47:56.229578  3435 net.cpp:409] coverage_coverage/sig_0_split -> coverage_coverage/sig_0_split_0
I1127 18:47:56.229584  3435 net.cpp:409] coverage_coverage/sig_0_split -> coverage_coverage/sig_0_split_1
I1127 18:47:56.229612  3435 net.cpp:144] Setting up coverage_coverage/sig_0_split
I1127 18:47:56.229625  3435 net.cpp:151] Top shape: 2 1 38 38 (2888)
I1127 18:47:56.229629  3435 net.cpp:151] Top shape: 2 1 38 38 (2888)
I1127 18:47:56.229634  3435 net.cpp:159] Memory required for data: 983862208
I1127 18:47:56.229636  3435 layer_factory.hpp:77] Creating layer bbox/regressor
I1127 18:47:56.229645  3435 net.cpp:94] Creating Layer bbox/regressor
I1127 18:47:56.229648  3435 net.cpp:435] bbox/regressor <- pool5/drop_s1_pool5/drop_s1_0_split_1
I1127 18:47:56.229655  3435 net.cpp:409] bbox/regressor -> bboxes
I1127 18:47:56.229879  3435 net.cpp:144] Setting up bbox/regressor
I1127 18:47:56.229887  3435 net.cpp:151] Top shape: 2 4 38 38 (11552)
I1127 18:47:56.229889  3435 net.cpp:159] Memory required for data: 983908416
I1127 18:47:56.229895  3435 layer_factory.hpp:77] Creating layer bboxes_bbox/regressor_0_split
I1127 18:47:56.229902  3435 net.cpp:94] Creating Layer bboxes_bbox/regressor_0_split
I1127 18:47:56.229905  3435 net.cpp:435] bboxes_bbox/regressor_0_split <- bboxes
I1127 18:47:56.229910  3435 net.cpp:409] bboxes_bbox/regressor_0_split -> bboxes_bbox/regressor_0_split_0
I1127 18:47:56.229917  3435 net.cpp:409] bboxes_bbox/regressor_0_split -> bboxes_bbox/regressor_0_split_1
I1127 18:47:56.229945  3435 net.cpp:144] Setting up bboxes_bbox/regressor_0_split
I1127 18:47:56.229950  3435 net.cpp:151] Top shape: 2 4 38 38 (11552)
I1127 18:47:56.229954  3435 net.cpp:151] Top shape: 2 4 38 38 (11552)
I1127 18:47:56.229959  3435 net.cpp:159] Memory required for data: 984000832
I1127 18:47:56.229961  3435 layer_factory.hpp:77] Creating layer bbox_mask
I1127 18:47:56.229969  3435 net.cpp:94] Creating Layer bbox_mask
I1127 18:47:56.229971  3435 net.cpp:435] bbox_mask <- bboxes_bbox/regressor_0_split_0
I1127 18:47:56.229976  3435 net.cpp:435] bbox_mask <- coverage-block
I1127 18:47:56.229981  3435 net.cpp:409] bbox_mask -> bboxes-masked
I1127 18:47:56.230001  3435 net.cpp:144] Setting up bbox_mask
I1127 18:47:56.230006  3435 net.cpp:151] Top shape: 2 4 38 38 (11552)
I1127 18:47:56.230010  3435 net.cpp:159] Memory required for data: 984047040
I1127 18:47:56.230012  3435 layer_factory.hpp:77] Creating layer bbox-norm
I1127 18:47:56.230017  3435 net.cpp:94] Creating Layer bbox-norm
I1127 18:47:56.230021  3435 net.cpp:435] bbox-norm <- bboxes-masked
I1127 18:47:56.230026  3435 net.cpp:435] bbox-norm <- size-block_size-block_0_split_1
I1127 18:47:56.230031  3435 net.cpp:409] bbox-norm -> bboxes-masked-norm
I1127 18:47:56.230048  3435 net.cpp:144] Setting up bbox-norm
I1127 18:47:56.230053  3435 net.cpp:151] Top shape: 2 4 38 38 (11552)
I1127 18:47:56.230057  3435 net.cpp:159] Memory required for data: 984093248
I1127 18:47:56.230059  3435 layer_factory.hpp:77] Creating layer bbox-obj-norm
I1127 18:47:56.230065  3435 net.cpp:94] Creating Layer bbox-obj-norm
I1127 18:47:56.230068  3435 net.cpp:435] bbox-obj-norm <- bboxes-masked-norm
I1127 18:47:56.230073  3435 net.cpp:435] bbox-obj-norm <- obj-block_obj-block_0_split_1
I1127 18:47:56.230079  3435 net.cpp:409] bbox-obj-norm -> bboxes-obj-masked-norm
I1127 18:47:56.230096  3435 net.cpp:144] Setting up bbox-obj-norm
I1127 18:47:56.230101  3435 net.cpp:151] Top shape: 2 4 38 38 (11552)
I1127 18:47:56.230104  3435 net.cpp:159] Memory required for data: 984139456
I1127 18:47:56.230108  3435 layer_factory.hpp:77] Creating layer bbox_loss
I1127 18:47:56.230113  3435 net.cpp:94] Creating Layer bbox_loss
I1127 18:47:56.230118  3435 net.cpp:435] bbox_loss <- bboxes-obj-masked-norm
I1127 18:47:56.230121  3435 net.cpp:435] bbox_loss <- bbox-obj-label-norm
I1127 18:47:56.230126  3435 net.cpp:409] bbox_loss -> loss_bbox
…
I1127 18:47:56.230252  3435 net.cpp:154]     with loss weight 1
I1127 18:47:56.230255  3435 net.cpp:159] Memory required for data: 984139464
I1127 18:47:56.230259  3435 layer_factory.hpp:77] Creating layer cluster
I1127 18:47:56.618283  3435 net.cpp:94] Creating Layer cluster
I1127 18:47:56.618299  3435 net.cpp:435] cluster <- coverage_coverage/sig_0_split_1
I1127 18:47:56.618305  3435 net.cpp:435] cluster <- bboxes_bbox/regressor_0_split_1
I1127 18:47:56.618310  3435 net.cpp:409] cluster -> bbox-list
I1127 18:47:56.841943  3435 net.cpp:144] Setting up cluster
I1127 18:47:56.841964  3435 net.cpp:151] Top shape: 2 50 5 (500)
I1127 18:47:56.841969  3435 net.cpp:159] Memory required for data: 984141464
I1127 18:47:56.841972  3435 layer_factory.hpp:77] Creating layer cluster_gt
I1127 18:47:56.842005  3435 net.cpp:94] Creating Layer cluster_gt
I1127 18:47:56.842010  3435 net.cpp:435] cluster_gt <- coverage-label_slice-label_4_split_1
I1127 18:47:56.842015  3435 net.cpp:435] cluster_gt <- bbox-label_slice-label_1_split_1
I1127 18:47:56.842020  3435 net.cpp:409] cluster_gt -> bbox-list-label
I1127 18:47:56.842093  3435 net.cpp:144] Setting up cluster_gt
I1127 18:47:56.842099  3435 net.cpp:151] Top shape: 2 50 5 (500)
I1127 18:47:56.842102  3435 net.cpp:159] Memory required for data: 984143464
I1127 18:47:56.842104  3435 layer_factory.hpp:77] Creating layer score
I1127 18:47:56.842320  3435 net.cpp:94] Creating Layer score
I1127 18:47:56.842326  3435 net.cpp:435] score <- bbox-list-label
I1127 18:47:56.842329  3435 net.cpp:435] score <- bbox-list
I1127 18:47:56.842334  3435 net.cpp:409] score -> bbox-list-scored
I1127 18:47:56.842396  3435 net.cpp:144] Setting up score
I1127 18:47:56.842401  3435 net.cpp:151] Top shape: 2 50 5 (500)
I1127 18:47:56.842402  3435 net.cpp:159] Memory required for data: 984145464
I1127 18:47:56.842406  3435 layer_factory.hpp:77] Creating layer mAP
I1127 18:47:56.842418  3435 net.cpp:94] Creating Layer mAP
I1127 18:47:56.842422  3435 net.cpp:435] mAP <- bbox-list-scored
I1127 18:47:56.842427  3435 net.cpp:409] mAP -> mAP
I1127 18:47:56.842432  3435 net.cpp:409] mAP -> precision
I1127 18:47:56.842437  3435 net.cpp:409] mAP -> recall
I1127 18:47:56.842481  3435 net.cpp:144] Setting up mAP
I1127 18:47:56.842486  3435 net.cpp:151] Top shape: 1 (1)
I1127 18:47:56.842489  3435 net.cpp:151] Top shape: 1 (1)
I1127 18:47:56.842491  3435 net.cpp:151] Top shape: 1 (1)
I1127 18:47:56.842494  3435 net.cpp:159] Memory required for data: 984145476
I1127 18:47:56.842496  3435 net.cpp:222] mAP does not need backward computation.
I1127 18:47:56.842499  3435 net.cpp:222] score does not need backward computation.
I1127 18:47:56.842501  3435 net.cpp:222] cluster_gt does not need backward computation.
I1127 18:47:56.842504  3435 net.cpp:222] cluster does not need backward computation.
…
